mnist_classifier/weights/lenet_epoch=26_test_acc=0.990.pth (torch, 181197 bytes, 10 tensors)

convnet.c1.weight f4 [6, 1, 5, 5]
0	0xbd65ff4d	-0.056151677
1	0x3e6770dd	0.22601648
2	0x3eb1f97c	0.34760654
3	0xbe0a29fa	-0.13492575
4	0xbee9228e	-0.45534176
5	0xbdca0c45	-0.098656215
6	0xbaef5d17	-0.0018261996
7	0x3ee92325	0.45534626
8	0x3ebd2f9d	0.3695039
9	0xbea3c9e1	-0.3198996
10	0xbecd356b	-0.40079817
11	0xbe01cae1	-0.12675048
12	0x3ebf2446	0.37332362
13	0x3e782cb9	0.2423581
14	0xbd824114	-0.06360069
15	0xbe8c1121	-0.27356818
16	0xbe105fd7	-0.1409906
17	0x3d7e6fe5	0.06211843
18	0x3ea65c10	0.32492113
19	0xbd923f6b	-0.07141002
20	0x3d7a1dd6	0.06106361
21	0xbd82abdb	-0.06380435
22	0xbca71889	-0.020397441
23	0x3e83e49b	0.2576035
24	0x3e990e9d	0.29893962
25	0xbe08da93	-0.1336463
26	0xbe11e512	-0.1424754
27	0xbc79fb08	-0.015257604
28	0x3ddbe7a5	0.10737542
29	0x3e103d89	0.14085974
30	0xbedab2e7	-0.42714617
31	0xbe6097a8	-0.21932852
32	0x3c3e2265	0.01160488
33	0x3eb1f342	0.34755903
34	0x3ee7a7be	0.45245165
35	0xbe95f5ee	-0.29289192
36	0x3d7be017	0.061493006
37	0x3e26b6ac	0.16280621
38	0x3ec6cc78	0.38827872
39	0x3d9863d2	0.07440914
40	0x3e2890de	0.16461512
41	0x3cd8fe9f	0.0264886
42	0x3ea8c1c8	0.32960343
43	0x3ddb69d4	0.107135445
44	0x3e0e0397	0.13868557
45	0x3e8e21c2	0.2776013
46	0x3e982334	0.29714358
47	0x3d1bcee3	0.0380391
48	0xbda13944	-0.07872251
49	0x3deff50a	0.11716659
50	0x3e7241cb	0.2365791
51	0x3ea19137	0.31556103
52	0x3e50d401	0.20393373
53	0x3ec200c8	0.3789122
54	0x3e9925e1	0.29911712
55	0x3e621eb5	0.22082026
56	0x3e839afb	0.25704178
57	0x3ec8e311	0.39235738
58	0x3deca15b	0.115542136
59	0x3e920728	0.28521085
60	0xbe8da5fc	-0.276657
61	0x3cfb979e	0.030711945
62	0xbb4041f3	-0.0029336184
63	0xbd8bac79	-0.06820006
64	0xbde82223	-0.11334636
65	0xbf1c582d	-0.61072046
66	0xbefd9f04	-0.49535382
67	0xbed210c7	-0.41028425
68	0xbe7986ff	-0.24367903
69	0x3d3726ee	0.04471486
70	0xbcfaa160	-0.030594528
71	0xbed991ec	-0.42494142
72	0xbee5c7a6	-0.44878882
73	0xbe97449e	-0.29544538
74	0xbe4fc4ba	-0.20289889
75	0xbb10361e	-0.0022004913
76	0xbe3d5623	-0.1848989
77	0xbeae7f44	-0.3408147
78	0xbed221d4	-0.41041434
79	0xbe5a3ac7	-0.21311484
80	0x3e94be16	0.29051274
81	0xbe127b7f	-0.14304923
82	0xbed0c2d9	-0.40773657
83	0xbdac24e7	-0.08405476
84	0xbe93efe3	-0.28893957
85	0x3eb0083c	0.34381282
86	0x3ec7c5ca	0.3901809
87	0x3eb38793	0.35064372
88	0x3d97dd6f	0.07415282
89	0x3e9578ed	0.29193822
90	0x3e220023	0.15820365
91	0x3eb0d471	0.3453708
92	0x3dfe2706	0.12409787
93	0x3e9395e1	0.28825286
94	0x3e6ae4a7	0.22938786
95	0xbe6f1dfe	-0.23351285
96	0x3df36894	0.11885181
97	0x3e291cfc	0.16514963
98	0x3ca41063	0.020027345
99	0xbd5f211e	-0.054474942
100	0x3dd1a923	0.102373384
101	0xbe8bd9c8	-0.2731459
102	0xbe6aa18d	-0.22913189
103	0xbe84979c	-0.2589692
104	0xbe44802b	-0.19189517
105	0xbde62966	-0.11238365
106	0xbec76210	-0.38942003
107	0xbdb20e99	-0.086941905
108	0x3d5021fd	0.050813664
109	0x3e0048a0	0.12527704
110	0x3ea03c5d	0.31296054
111	0xbe05a686	-0.13051805
112	0xbe115056	-0.14190802
113	0x3bbc95dc	0.0057551693
114	0xbe4de8d6	-0.20108351
115	0x3ed9878e	0.42486233
116	0x3ed1c64c	0.409716
117	0x3e6f4f26	0.23370036
118	0x3e099693	0.13436346
119	0xbdd9f0f0	-0.10641658
120	0x3d1ab134	0.03776665
121	0x3e0ea9f9	0.13932027
122	0x3e1ebf37	0.1550263
123	0x3e1abd60	0.15111303
124	0x3e93da17	0.28877327
125	0xbd7375ae	-0.0594384
126	0x3e62531a	0.22102013
127	0x3e4864b4	0.19569665
128	0xbda161e3	-0.078799985
129	0x3dc2f757	0.095198326
130	0x3e815470	0.25259733
131	0x3ecd63f0	0.4011531
132	0x3e2c5ec4	0.16833025
133	0xbd65d049	-0.05610684
134	0xbe78db42	-0.2430239
135	0x3eb06159	0.3444927
136	0xbd095cf4	-0.033535913
137	0xbe22be7e	-0.1589298
138	0x3e36e998	0.17862546
139	0xbc608293	-0.013703006
140	0x3e5ec5ff	0.21755217
141	0x3cac49f9	0.021031367
142	0xbe56bf9c	-0.2097153
143	0xbcbf747d	-0.023370976
144	0x3e759557	0.2398275
145	0x3d496498	0.0491682
146	0xbd2eedf9	-0.042707417
147	0xbe622269	-0.22083439
148	0xbed5b79e	-0.4174165
149	0x3ce6131f	0.02808529

convnet.c1.bias f4 [6]
0	0xbd80b340	-0.06284189
1	0xbd75d828	-0.060020596
2	0x3e62909f	0.22125481
3	0x39feecb1	0.00048623004
4	0xbb04c971	-0.002026167
5	0xbbeb9808	-0.0071897544

convnet.c3.weight f4 [16, 6, 5, 5]
0	0x3d2c07d9	0.04199967
1	0xbd5b9a1e	-0.053613774
2	0xbe2081dd	-0.15674539
3	0x3d9c9934	0.07646409
4	0x3e483414	0.19551116
5	0x3dc4329e	0.09579967
6	0xbdbc1d9b	-0.09185334
7	0x3cfa8804	0.030582435
8	0xbc76ee4d	-0.015071464
9	0x3d0d0eca	0.034437932
10	0x3cde56e9	0.027141051
11	0x3dc75032	0.09732093
12	0xbc90006f	-0.017578332
13	0x3d04139a	0.032245256
14	0xbd98d9cc	-0.074634165
15	0xbd3620bd	-0.044464815
16	0x3db86da6	0.09005289
17	0xbdc538d6	-0.09629981
18	0xbddf708a	-0.10910137
19	0xbe15478c	-0.14578074
20	0xbd31ffac	-0.04345672
21	0x3c32a32d	0.010903162
22	0xbdffb1d2	-0.124850884
23	0xbe06972e	-0.13143608
24	0xbe0c7097	-0.13714825
25	0x3da8ce9e	0.08242534
26	0xbd7200c2	-0.059082754
27	0xbdaa3f94	-0.08312908
28	0x3deaebc6	0.114707515
29	0x3dbc32db	0.091893874
30	0xbd243845	-0.040092725
31	0xbe46464e	-0.19362757
32	0xbd2b77c4	-0.041862264
33	0x3e59f935	0.21286471
34	0x3e66eaa9	0.22550453
35	0xbdef2c03	-0.116783164
36	0x3da91fe0	0.08258033
37	0x3e641d5a	0.22276822
38	0x3ea268a9	0.31720474
39	0xbe08d152	-0.133611
40	0x3d273926	0.040825985
41	0x3e7801d5	0.24219449
42	0x3e8cb5f2	0.27482563
43	0xbd8d564a	-0.06901224
44	0xbea60d3c	-0.32431972
45	0x3d00cfcc	0.03144817
46	0x3d8df7c6	0.06932025
47	0xbe10593c	-0.1409654
48	0xbe10a3df	-0.14125012
49	0xbded742f	-0.11594426
50	0x3ca05f04	0.019576557
51	0x3daf38b7	0.085557394
52	0xbd099ade	-0.03359496
53	0xbe31e532	-0.17372587
54	0xbe938e16	-0.2881934
55	0x3da3720e	0.079807386
56	0x3dad09c8	0.08449131
57	0xbda77f2a	-0.081785515
58	0xbebd06b0	-0.36919165
59	0xbe0ca77d	-0.13735767
60	0xbe254238	-0.16138542
61	0xbe2cc4be	-0.16871926
62	0xbe95dd74	-0.29270518
63	0xbd129205	-0.035783786
64	0x3e8d9c19	0.27658156
65	0x3cfd2875	0.03090308
66	0xbdc55ec6	-0.09637217
67	0x3cd3fc8a	0.025877256
68	0x3e4f79f2	0.20261362
69	0x3ba2911d	0.0049611465
70	0x3d878e17	0.06618898
71	0x3dcd5c72	0.10027398
72	0x3df4eba0	0.119590044
73	0x3db0c176	0.0863065
74	0xbdea990c	-0.114549726
75	0x3d36dcf0	0.044644296
76	0xbdbbf595	-0.091777004
77	0xbe3861bc	-0.18006033
78	0xbe54d67b	-0.20784943
79	0xbd337812	-0.04381568
80	0xbdd3d509	-0.103433676
81	0x3bb12dc7	0.0054070684
82	0x3d927859	0.07151861
83	0x3d43d80c	0.04781346
84	0x3da32b9d	0.07967303
85	0x3d166527	0.03671756
86	0x3df096de	0.11747526
87	0x3e36307f	0.17791937
88	0x3bebc399	0.007194948
89	0xbe56f3d6	-0.20991454
90	0x3e18e703	0.14931874
91	0x3d43cf9e	0.04780542
92	0xbde9be34	-0.114132315
93	0xbe06951f	-0.13142823
94	0xbc7c5325	-0.015400683
95	0x3e2e349b	0.17012255
96	0xbe5b1c73	-0.21397571
97	0xbddb8538	-0.10718769
98	0xbd998f66	-0.07498054
99	0x3ab2e4a5	0.0013648464
100	0x3d283a8b	0.041071456
101	0xbdc2925d	-0.09500573
102	0xbdf41a63	-0.11919095
103	0xbdc8a380	-0.0979681
104	0xbe7c4e24	-0.24639183
105	0xbe26af15	-0.16277726
106	0x3c08e239	0.008354717
107	0xbd96b832	-0.07359351
108	0xbd516aa0	-0.051127076
109	0xbc2c28ca	-0.010507772
110	0xbd7b9736	-0.061423503
111	0x3d752a1e	0.05985462
112	0x3d81ec9c	0.06343958
113	0x3e248a51	0.16068389
114	0x3d0cf9e0	0.034417987
115	0x3e19e37d	0.15028186
116	0x3d805289	0.06265742
117	0x3d19f8f4	0.037590936
118	0xbe121536	-0.14265904
119	0xbd290ade	-0.04127013
120	0x3d4e180d	0.050315905
121	0xbd2f3b5f	-0.04278123
122	0xbe5fe0ea	-0.21863142
123	0xbdc6cb36	-0.09706728
124	0xbde4c54c	-0.11170444
125	0xbd87391f	-0.06602692
126	0x3b88c7f8	0.0041742288
127	0xbce8b0b4	-0.028404571
128	0xbdcf94f4	-0.101358324
129	0x3e223411	0.15840174
130	0x3da9a521	0.08283449
131	0xbd9100de	-0.070802435
132	0xbe741ac3	-0.23838334
133	0xbdc80c5b	-0.097679816
134	0x3df5caea	0.120015934
135	0xbc74ae97	-0.014934204
136	0xbd95df14	-0.073179394
137	0x3c9d3d9e	0.01919442
138	0x3e1dac8f	0.15397857
139	0x3e6a1daa	0.22862878
140	0x3da55013	0.080719136
141	0xbdd17eb6	-0.10229246
142	0x3e79f441	0.24409582
143	0x3e4f764d	0.20259972
144	0x3d56397e	0.052300923
145	0xbe1585d5	-0.14601834
146	0x3da79f6d	0.08184705
147	0x3e1c2e7a	0.15252104
148	0x3cbd6be5	0.023122737
149	0xbe19b5ef	-0.15010808
150	0xbcb2bc60	-0.02181834
151	0x3c6495a0	0.013951689
152	0x3e1ceed2	0.15325478
153	0x3c2481b7	0.010040692
154	0xbe3b4819	-0.18289222
155	0x3d0f4d5b	0.03498588
156	0x3dd1b359	0.10239286
157	0x3c24cd57	0.010058722
158	0xbd15a4ad	-0.036534
159	0xbd6ce7cc	-0.057838246
160	0xbcb21c9c	-0.021742158
161	0x3c918f17	0.017768426
162	0x3cfcca75	0.030858258
163	0xbdda9ed7	-0.106748275
164	0xbe985555	-0.29752603
165	0xbe06bacb	-0.13157193
166	0x3d0c10b6	0.034195624
167	0x3d33f573	0.04393525
168	0xbe3ac59e	-0.18239447
169	0xbe677d16	-0.2260631
170	0xbe2c1baf	-0.16807435
171	0x3df3c84c	0.11903438
172	0x3ded4ebb	0.11587282
173	0xbe206f2f	-0.15667413
174	0xbe5ec064	-0.21753079
175	0x3e00ba5b	0.12571089
176	0x3e480a0a	0.1953508
177	0x3e2d5c9a	0.16929856
178	0x3cefb233	0.029259777
179	0xbd068e89	-0.032850776
180	0x3deb9570	0.11503112
181	0x3e36848e	0.17824003
182	0x3e2779ca	0.16355053
183	0xbcb27cf7	-0.021788104
184	0xbdf051ee	-0.11734377
185	0xbd38d66a	-0.045126356
186	0x3d71a44b	0.058994573
187	0x3d52e98c	0.05149226
188	0xbd8eb2a8	-0.0696767
189	0xbe0912ff	-0.13386153
190	0xba5af54d	-0.00083525927
191	0x3e155420	0.14582872
192	0x3de0acdb	0.109704696
193	0xbe163ca9	-0.14671578
194	0xbeb84b3d	-0.35994902
195	0x3c07df0f	0.008292927
196	0x3dd43437	0.10361522
197	0xbd507fa7	-0.05090299
198	0xbe67632c	-0.22596425
199	0xbe616ccd	-0.2201416
200	0x3d215143	0.039384138
201	0xbe711223	-0.23542075
202	0xbea12646	-0.31474513
203	0xbecdd417	-0.40200874
204	0xbcaa16ff	-0.020762919
205	0x3c810949	0.015751498
206	0xbdd142ae	-0.10217796
207	0xbe3c9774	-0.1841715
208	0xbd9cf504	-0.076639205
209	0xbb9ead2e	-0.004842422
210	0x3e2f6589	0.17128576
211	0x3d7202a1	0.05908454
212	0x3d40ac45	0.04703929
213	0xba3e463d	-0.0007258391
214	0x3caecfcb	0.021339318
215	0xbc1c4705	-0.009538417
216	0x3df51b77	0.11968129
217	0x3e1201cb	0.14258496
218	0x3e15c142	0.14624503
219	0x3e1594fb	0.14607613
220	0x3db45a14	0.088062435
221	0x3df1c5a4	0.11805275
222	0x3d84579e	0.06462024
223	0x3d5be66d	0.053686548
224	0xbcc537f4	-0.024074532
225	0xbe227ae0	-0.15867186
226	0xbcd220ab	-0.025650343
227	0x3d78af99	0.060714338
228	0x3e170dff	0.14751433
229	0xbd8aef37	-0.06783908
230	0xbcdd7e69	-0.027037816
231	0xbc7ee335	-0.0155571
232	0x3cf2c29e	0.029633816
233	0x3dabf562	0.083964124
234	0x3c32da53	0.01091631
235	0x3c36d3e8	0.011158921
236	0xbcb05ff5	-0.02153013
237	0xbd343169	-0.043992434
238	0x3b83e558	0.0040251426
239	0x3c08f6c7	0.008359618
240	0xbdb6eefc	-0.089323014
241	0xbe4d1e76	-0.20031151
242	0xbd190350	-0.037356675
243	0x3d6f6d89	0.05845407
244	0xbde5cb3c	-0.112204045
245	0xbe5d20df	-0.2159457
246	0xbe7dec80	-0.24797249
247	0xbc8d0a26	-0.017216753
248	0x3d384a3a	0.044992663
249	0xbdc018df	-0.09379744
250	0xbe0345df	-0.12819622
251	0x3d72ba2a	0.05925957
252	0x3dd450db	0.103669845
253	0x3d0267ee	0.031837396
254	0x3c90f075	0.017692784
255	0x3c886952	0.016651783

convnet.c3.bias f4 [16]
0	0x3bd86c8f	0.006604738
1	0x3da4ba32	0.080433264
2	0xbe3d1c91	-0.18467928
3	0xbdc44475	-0.0958337
4	0x3dbf6f8c	0.09347448
5	0xbe36010b	-0.17773835
6	0x3d466ac6	0.04844167
7	0xbc48f944	-0.012266461
8	0xbd86e749	-0.06587083
9	0xbdc3cd58	-0.095606506
10	0xbdc631d0	-0.0967747
11	0x3e426fdb	0.18987982
12	0xbdce811a	-0.10083218
13	0xbba05c2c	-0.0048938002
14	0xbe240305	-0.16016777
15	0xbd9c6510	-0.07636464

convnet.c5.weight f4 [120, 16, 4, 4]
0	0x3cb6bc33	0.022306537
1	0xbd1b4e36	-0.037916385
2	0x3d10390b	0.03521065
3	0xbd828f14	-0.06374946
4	0xbd84a250	-0.06476271
5	0x3c6ba7ab	0.014383237
6	0xbd9097f3	-0.07060232
7	0xbca8a60b	-0.020586988
8	0xbd7a5b7f	-0.061122414
9	0x3cd44dbb	0.025915971
10	0xbd8bda34	-0.06828728
11	0x3c9642f0	0.018342465
12	0xbd7005b0	-0.058599174
13	0x3ba58866	0.0050516604
14	0xbd3c33dc	-0.045947894
15	0xbcad57d9	-0.021160053
16	0x3cf740df	0.0301823
17	0x3d0f7b7a	0.035029866
18	0xbd87b3cf	-0.06626093
19	0xbccd84a9	-0.025087671
20	0x3d3e9922	0.046532758
21	0x3ca048e3	0.019566005
22	0x3ba26a5e	0.0049565276
23	0xbd8df32d	-0.06931148
24	0xbd1062e7	-0.03525057
25	0x3cf536ef	0.029933421
26	0xbb815841	-0.0039472883
27	0x3b2f68fc	0.0026765456
28	0xbd74d72b	-0.059775513
29	0x3d223828	0.039604336
30	0x3d305826	0.043052815
31	0xbae735f1	-0.0017639977
32	0x3bbaa2e1	0.005695686
33	0x3d3a33d6	0.04545959
34	0x3cb53a46	0.022122514
35	0xbd947616	-0.072490856
36	0xbd80c687	-0.06287866
37	0x3cf0ff81	0.029418709
38	0xbcf8fa79	-0.030392872
39	0xbdaf6f87	-0.08566194
40	0x3d1ed169	0.038773928
41	0xbceea528	-0.029131487
42	0x3c979ba3	0.01850683
43	0x3c3a7b4c	0.011381935
44	0x3cea9c21	0.028638901
45	0x3d307214	0.043077543
46	0xbd6084d8	-0.05481419
47	0xbd520dfa	-0.05128286
48	0xbd8d7e27	-0.06908827
49	0x3cbe4e11	0.023230584
50	0xbd5f94ce	-0.05458527
51	0x3c4824e8	0.01221583
52	0xbd6ea558	-0.058263153
53	0xbc60659f	-0.013696103
54	0xbb9e58d5	-0.004832367
55	0xbd8aaced	-0.06771264
56	0xbc80b1fb	-0.015709868
57	0x3cf397da	0.029735494
58	0x3ce3b7e1	0.027797641
59	0x3ca5e499	0.020250605
60	0xbd82941b	-0.06375905
61	0xbd856bab	-0.06514677
62	0xbd771ce9	-0.060330305
63	0xbcd2b730	-0.025722116
64	0xbd153c63	-0.036434542
65	0xbc5a53ac	-0.013325613
66	0xbd34e6da	-0.04416547
67	0x3d525313	0.051348757
68	0xbd04d788	-0.03243211
69	0xbbd668a1	-0.0065432345
70	0x3d46e72f	0.048560318
71	0x3d130490	0.035893023
72	0x3d3228d1	0.043495957
73	0x3bbb7098	0.0057202093
74	0xbd281d12	-0.04104335
75	0x3d375d67	0.04476681
76	0xbd44d289	-0.048052344
77	0x3d520eee	0.05128377
78	0x3d5ebcd1	0.054379288
79	0x3d3e4a67	0.046457674
80	0x3cc42c87	0.023947014
81	0x3d336efd	0.04380702
82	0x3b4367eb	0.0029816579
83	0xbd638f38	-0.055556506
84	0xbd18d576	-0.037312947
85	0x3d7a1537	0.06105539
86	0xbd4cf6f6	-0.050040208
87	0xbcc6a3b3	-0.02424798
88	0x3d0025a9	0.031285916
89	0xbd960c3f	-0.073265545
90	0xbc122ba4	-0.008921538
91	0x3d13dd1a	0.03609953
92	0x3ccad4aa	0.02475961
93	0xbc4644a1	-0.012101323
94	0xbc0a5c2c	-0.008444827
95	0x3b71057b	0.0036776948
96	0xbc943f47	-0.01809658
97	0x3d26c1a5	0.040712018
98	0xbd4912ff	-0.04909038
99	0xbd4ec46c	-0.05048029
100	0xbcd0b70f	-0.025477914
101	0x3ca32789	0.019916313
102	0xbd1cfd71	-0.038327638
103	0x3c5ac4b4	0.013352562
104	0x3c479b9e	0.012183098
105	0x3d1f4b1a	0.03888998
106	0xbd53034a	-0.05151681
107	0xbc55eb9c	-0.013056662
108	0xbd33fe72	-0.04394383
109	0x3c269686	0.0101677235
110	0x3c7284c2	0.01480216
111	0xbd8889ce	-0.06666909
112	0x3c9be9dd	0.019032413
113	0x3d180cf1	0.037121717
114	0x3cbcb7a3	0.023036784
115	0xbd3499ed	-0.044092108
116	0xbd0ddce7	-0.034634497
117	0xbc9a6f45	-0.018851886
118	0x3c49d69a	0.012319231
119	0xba1bc9de	-0.00059428613
120	0x3c6a0a34	0.014284659
121	0x3d326638	0.043554515
122	0xbb8a4f02	-0.0042208442
123	0xbca33183	-0.01992107
124	0xbd718f29	-0.05897442
125	0xbc498ab2	-0.012301134
126	0x3d003238	0.031297892
127	0xbd1e86fc	-0.03870295
128	0xbd639886	-0.05556538
129	0xbd838af9	-0.06422991
130	0xbc76c517	-0.015061638
131	0x3cea62a3	0.028611487
132	0xbd894b09	-0.06703765
133	0xbd2a77eb	-0.04161827
134	0xbd2961f8	-0.041353196
135	0x3cc7f3ad	0.024408186
136	0xbd54e639	-0.05197737
137	0xbd55d27a	-0.05220268
138	0x3d366426	0.044529103
139	0xbd8bbb00	-0.06822777
140	0xbceb63f4	-0.028734185
141	0xbacd6971	-0.0015671683
142	0x3b9dd0f5	0.0048161694
143	0xbd0c6991	-0.034280363
144	0xbd2d4f19	-0.04231176
145	0xbd2b25e8	-0.041784197
146	0x3c7cb322	0.015423568
147	0x3c0da1a4	0.008644495
148	0xbd785c0c	-0.060634658
149	0xbd9470d7	-0.07248085
150	0x3d290bef	0.041271146
151	0x3d390acc	0.045176312
152	0xbc9946dd	-0.018710548
153	0x3cb2cf2d	0.021827305
154	0x3d0b02d5	0.033938248
155	0xb7fe7376	-3.0332925e-05
156	0xbd074bcb	-0.033031266
157	0xbd1ba89c	-0.038002595
158	0xbc6a61a9	-0.014305511
159	0x3cbff1f8	0.02343081
160	0xbd538daf	-0.051648792
161	0x3d0b1c67	0.033962633
162	0x3d2ca42a	0.042148747
163	0xbca60632	-0.020266626
164	0xbc54a826	-0.012979543
165	0x3bb2d9a0	0.005458072
166	0x3ccb321a	0.024804164
167	0x3ad7114b	0.0016408352
168	0x3d304d9c	0.043042764
169	0x3d1ef6a7	0.038809445
170	0xbdb6ce1c	-0.08926031
171	0xbc789f0d	-0.015174639
172	0xbd835251	-0.06412185
173	0xbd536e2b	-0.051618736
174	0xbd5fe478	-0.054661244
175	0x3d0449ce	0.032296948
176	0x37274761	9.970595e-06
177	0x3cecad1a	0.028891135
178	0xbd579035	-0.05262776
179	0x3cb069eb	0.02153488
180	0xbd7ef096	-0.06224116
181	0xbc1e8e3b	-0.009677465
182	0x3d14005f	0.036133166
183	0xbd1eca08	-0.03876689
184	0x3b7b8ec8	0.0038384665
185	0xbcdf95eb	-0.027293166
186	0x3ca52708	0.020160213
187	0x3c7e8703	0.015535119
188	0xbd07793c	-0.033074602
189	0xbd8c6e5a	-0.068569854
190	0x3c7ea513	0.015542286
191	0x3c3aaec7	0.011394209
192	0xbc442c11	-0.011973397
193	0x3c5780a4	0.013153229
194	0x3c099769	0.008397915
195	0xbd3b8b91	-0.045787398
196	0xbcab3294	-0.020898141
197	0x3d352e28	0.04423347
198	0xbd3fe803	-0.046852123
199	0xbc7547df	-0.014970749
200	0xbd4b90cb	-0.049698632
201	0xbd940dde	-0.072292075
202	0x3ba7a38a	0.005115931
203	0x3b6c28c6	0.0036035045
204	0xbd811126	-0.06302099
205	0xbd257e4d	-0.040403653
206	0xbd13d778	-0.03609416
207	0xbd4fcf29	-0.050734673
208	0xbd28b921	-0.041192178
209	0xbc25f2b4	-0.010128666
210	0x3b7f71df	0.0038977785
211	0xbd8778d0	-0.0661484
212	0xbd32000b	-0.043457072
213	0xbbb06100	-0.005382657
214	0xbd872b6a	-0.066000775
215	0xbb34edd7	-0.0027607584
216	0x3c2edfba	0.010673458
217	0xbd7b40e7	-0.061341193
218	0xbcb8590e	-0.022503402
219	0xbd3243c9	-0.043521676
220	0x3c84e4c5	0.016222367
221	0xbd3cdeed	-0.046111036
222	0x3c917027	0.017753674
223	0xbd32a0ec	-0.0436105
224	0xbccc3cbf	-0.02493131
225	0x3d181d84	0.037137523
226	0x3cdd71d0	0.02703181
227	0x3cb1783c	0.021663778
228	0x3cfbf9d4	0.030758776
229	0x3c0c1598	0.00855007
230	0xbd8ad02b	-0.06777986
231	0x3bc9dd7c	0.006160436
232	0xbcfc553e	-0.030802365
233	0xbd29a4dd	-0.04141699
234	0xbd81beae	-0.063351974
235	0xbc17be83	-0.00926173
236	0xbc7679ea	-0.015043715
237	0xbc379f59	-0.011207425
238	0xbd572f4d	-0.052535344
239	0xbcd7abfb	-0.026327124
240	0xbd81b27b	-0.063328706
241	0x3ca536d6	0.02016775
242	0x3ca79458	0.020456478
243	0xbc9c86f5	-0.019107321
244	0xbd768bb1	-0.060191814
245	0xbd5796e5	-0.05263414
246	0xbd5b60b5	-0.053559024
247	0x3d189fa9	0.03726164
248	0xbd35c5da	-0.04437814
249	0xbcf08c74	-0.029363848
250	0x3c63a860	0.013895124
251	0x3cf9216e	0.030411448
252	0x3d15ba50	0.036554635
253	0x3d62862a	0.05530373
254	0xbd2cf68d	-0.042227317
255	0xbd9e532c	-0.077307075

convnet.c5.bias f4 [120]
0	0x3c306adc	0.010767665
1	0xbd871f83	-0.06597807
2	0x3db09dde	0.08623861
3	0x3c3f5007	0.011676795
4	0xbcd16cc7	-0.025564564
5	0xbb87a4a9	-0.004139502
6	0xbcb51a88	-0.022107378
7	0x3cea9f9f	0.028640566
8	0x3db945aa	0.090464905
9	0x3ddc7d56	0.107660934
10	0x3d92a77d	0.07160852
11	0x3d660ffd	0.05616759
12	0x3d375cc9	0.04476622
13	0x3d1c696b	0.038186472
14	0x3af0a0e8	0.0018358501
15	0x3d538108	0.051636726
16	0x3d2d6f90	0.042342722
17	0xbd21eb33	-0.039530944
18	0xbd9983e6	-0.07495861
19	0x3cccf272	0.02501795
20	0x3cc354ee	0.023844209
21	0xbd4f8e95	-0.050673086
22	0x3d61244c	0.054966256
23	0x3daf5aec	0.08562264
24	0xbb878846	-0.004136118
25	0x3ba678ae	0.005080304
26	0xbcd4299f	-0.025898753
27	0x3d1f2190	0.038850367
28	0x3dad7705	0.08469967
29	0xbd006ea3	-0.03135551
30	0xbd8caeea	-0.068693
31	0x3cc1bd9a	0.02364998
32	0x3c648062	0.0139466245
33	0xbd51eb6e	-0.051249914
34	0x3d19c628	0.037542492
35	0x3da9f56f	0.08298766
36	0x3c95abd2	0.018270407
37	0xbcd5592f	-0.026043503
38	0x3dd7d60e	0.105388746
39	0x3d40aded	0.04704087
40	0x3c3cd2f6	0.011524906
41	0x3cbd7711	0.023128064
42	0xbcb709f4	-0.022343613
43	0xbbbd7869	-0.0057821763
44	0x3dd3551e	0.10318969
45	0x3d41f855	0.04735597
46	0x3de5c66f	0.11219489
47	0xbc94fb13	-0.018186128
48	0xbd7bfdda	-0.06152139
49	0x3d4ca75c	0.049964294
50	0xbd2a44fd	-0.0415697
51	0xbb741fd6	-0.003725042
52	0x3d8c7f90	0.06860268
53	0x3c737467	0.014859295
54	0x3d09bb1c	0.033625707
55	0xbd823ecf	-0.06359636
56	0xbaf67751	-0.001880387
57	0xbc54dbe5	-0.01299188
58	0xbd890f75	-0.06692401
59	0x3d7de697	0.061987486
60	0x3d683128	0.056687504
61	0xbd204099	-0.039124105
62	0x3dd5b42a	0.10434754
63	0x3d5e9757	0.054343548
64	0xbcb291c3	-0.02179802
65	0xbd13ea97	-0.036112394
66	0xbd103fec	-0.03521721
67	0x3c656b47	0.014002628
68	0x3d7f54b7	0.06233665
69	0xbd0e147f	-0.034687515
70	0xbcfb7ca8	-0.03069909
71	0xbcc5cf9e	-0.024146851
72	0xbc537273	-0.012905705
73	0xbd05996d	-0.03261702
74	0xbd05f505	-0.032704372
75	0x3c76dffb	0.01506805
76	0x3d0b1a4d	0.03396063
77	0x3d1f21bb	0.038850527
78	0xbcb19a9b	-0.021680167
79	0xbd898dce	-0.067165
80	0x3c1f5461	0.009724707
81	0x3d7a832e	0.06116026
82	0xbc57120f	-0.013126864
83	0xbc8db333	-0.017297363
84	0x3d85e107	0.06537061
85	0x3ca4707f	0.020073174
86	0xbd16f308	-0.036852866
87	0x3c6a4aca	0.014300058
88	0xbd0c72a6	-0.034289025
89	0x3d4674e7	0.04845133
90	0x3b8730b1	0.0041256775
91	0xbc873d3e	-0.016508695
92	0xbd0dee2d	-0.03465097
93	0x3d028a14	0.031869963
94	0x3d69970b	0.05702881
95	0x3c526901	0.012842418
96	0x3ccd9e07	0.025099767
97	0xbd30da52	-0.043176956
98	0xbbbe3d73	-0.005805665
99	0x3d2b1c22	0.041774876
100	0xbc1b5d71	-0.009482727
101	0xbd08d8d0	-0.033409894
102	0x3d31b426	0.043384694
103	0x3dc60787	0.096694045
104	0xbceba776	-0.028766375
105	0xbd60e8a2	-0.054909356
106	0x3d4bb836	0.049736224
107	0xbd211d66	-0.039334677
108	0xbce8db13	-0.028424775
109	0x3d140d66	0.03614559
110	0x3b8ca37d	0.0042919503
111	0x3e003c82	0.12523082
112	0xbd598ccf	-0.0531128
113	0x3dcb568e	0.09928618
114	0xbb54b955	-0.00324591
115	0x3d94c44b	0.072640024
116	0xbd09c5f5	-0.033636052
117	0x3df61dc2	0.120173946
118	0xbd74803a	-0.0596926
119	0xbd44a5b7	-0.0480096

fc.f6.weight f4 [84, 120]
0	0xbc722e58	-0.014781557
1	0xbcc7f395	-0.024408141
2	0x3e1b64ff	0.15175246
3	0xbca20d24	-0.019781657
4	0xbc65ccec	-0.014025908
5	0x3c057019	0.008144402
6	0x3d52b3a7	0.05144086
7	0xbdb5505c	-0.08853218
8	0x3dbe4d76	0.09292118
9	0x3ce84328	0.028352335
10	0xbc7f7217	-0.015591166
11	0x3de530ba	0.111909345
12	0xbd9be60a	-0.07612236
13	0xbda29974	-0.07939425
14	0x3ca33197	0.019921107
15	0xbcc3a61a	-0.023882914
16	0xbd10b8f5	-0.03533264
17	0xbd9173b0	-0.07102144
18	0x3a9d9622	0.0012022892
19	0x3d3f9415	0.04677208
20	0x3b871f10	0.004123576
21	0xbce50eb2	-0.027961109
22	0xbe1742d2	-0.14771584
23	0x3d16ee28	0.036848217
24	0x3dd96d73	0.10616579
25	0xbd9b8919	-0.07594509
26	0xbdc135a3	-0.094340585
27	0x3e514bb5	0.20439036
28	0x3d0f1d66	0.034940146
29	0x3d0ebacf	0.034846123
30	0x3e75613e	0.23962876
31	0xbe84b38a	-0.25918227
32	0x3dca7bfe	0.09886931
33	0xbd9090b5	-0.07058851
34	0xbd08be3c	-0.033384547
35	0xbdcc7c28	-0.099846184
36	0x3de9ce6a	0.114163235
37	0xbd4bbd9e	-0.04974138
38	0x3e400a8f	0.18754028
39	0xbbcb89eb	-0.0062115095
40	0xbe41aeb5	-0.18914302
41	0x3d6c437b	0.057681542
42	0x3ccf3751	0.025294932
43	0xbc76fa8c	-0.0150743835
44	0xbd0e843d	-0.03479408
45	0xbd988c4a	-0.07448633
46	0x3ea0c5f2	0.3140102
47	0x3d79506e	0.06086772
48	0x3d4b3025	0.04960646
49	0x3dda91c4	0.10672334
50	0x3bbf86e3	0.005844937
51	0xbd2cf7e9	-0.042228613
52	0x3c596b0a	0.013270149
53	0x3e17166c	0.14754647
54	0x3cb7f2d8	0.022454664
55	0x3dea11b5	0.114291586
56	0xbd521a6c	-0.05129473
57	0x3d8cd5a4	0.06876686
58	0x3caccaae	0.021092739
59	0xbd7b48b3	-0.06134863
60	0x3d956aeb	0.072957836
61	0xbde0531b	-0.10953351
62	0xbe0a0312	-0.13477734
63	0x3d70b1a6	0.05876317
64	0xbd771c86	-0.060329936
65	0xbcb918e9	-0.022594886
66	0x3ce8da8d	0.028424526
67	0x3de5da69	0.11223299
68	0x3d3f7ed0	0.046751797
69	0x3c7cc68c	0.015428197
70	0x3e0eae77	0.1393374
71	0x3e62744e	0.22114679
72	0x3de22145	0.11041502
73	0xbd194bd9	-0.03742585
74	0xbd1b6164	-0.037934676
75	0xbd218941	-0.039437536
76	0x3dea5e75	0.114437975
77	0x3e47e94b	0.19522588
78	0xbcd3458e	-0.025790002
79	0xbbbd48ad	-0.005776486
80	0x3e038edd	0.12847467
81	0x3d7fa60c	0.062414214
82	0xbdefd218	-0.11709994
83	0x3d8dab5b	0.06917449
84	0x3c861a69	0.016370015
85	0xbd8fa703	-0.07014277
86	0xbc979739	-0.018504726
87	0x3d163b25	0.0366775
88	0x3c50a605	0.012734895
89	0xbe055f2a	-0.13024583
90	0xbd7b1530	-0.061299503
91	0x3dc3224c	0.09528026
92	0x3d0a5fc3	0.03378273
93	0x3c4d5447	0.0125323
94	0xbcb4db58	-0.022077248
95	0xbd19d9db	-0.03756128
96	0xbd9271b6	-0.07150595
97	0x3cb514d1	0.022104653
98	0x3e373e6e	0.17894909
99	0x3cee52ab	0.029092154
100	0xbde718ec	-0.1128405
101	0x3e5acc26	0.21366939
102	0x3ca137af	0.019679872
103	0xbc508fba	-0.01272958
104	0x3b2dc105	0.0026512754
105	0x3d357acc	0.04430656
106	0xbdf3eafc	-0.11910054
107	0xbda25824	-0.07926968
108	0x3d1e3dd2	0.038633175
109	0x3e26d0e4	0.16290623
110	0xbda6b342	-0.081396595
111	0x3dbb4a04	0.09144977
112	0xbe0f6572	-0.14003542
113	0x3d996e49	0.07491738
114	0xbd582f93	-0.052779745
115	0x3c9c6ce2	0.019094888
116	0x3d0816f4	0.033225015
117	0xbd8fd38d	-0.07022772
118	0x3b6fb576	0.0036576665
119	0xbdb761d9	-0.0895421
120	0xbc828244	-0.015931256
121	0xbdbb8b49	-0.09157426
122	0xbe06d32e	-0.13166496
123	0xbd4980f7	-0.049195256
124	0xbc60fb5c	-0.013731804
125	0xbc2de338	-0.010613255
126	0x3d9b2c16	0.07576768
127	0x3c2d2515	0.010567923
128	0x3ce7ef09	0.028312223
129	0x3db1812a	0.08667214
130	0x3de5a988	0.11213976
131	0xbd0ebacd	-0.034846116
132	0xbd21f3d8	-0.03953919
133	0x3cdb213e	0.02674925
134	0xbd9fea95	-0.07808415
135	0x3c3c3739	0.0114877755
136	0x3d84f7a7	0.064925484
137	0x3dfb9f11	0.12286199
138	0x3dab53f5	0.08365623
139	0x3e12db39	0.1434144
140	0xbdef92ea	-0.116979435
141	0x3d9299ae	0.07158218
142	0x3e0f89ab	0.1401736
143	0xbd133649	-0.035940442
144	0xbe4b8b0e	-0.19877264
145	0x3ddd0f73	0.10793962
146	0xbcf9a27b	-0.030472985
147	0xbe4e593a	-0.20151225
148	0x3c3d34ff	0.01154828
149	0x3cfad422	0.030618731
150	0xbe1a47c9	-0.15066446
151	0x3e7342d8	0.23755968
152	0x3d8328ff	0.06404304
153	0x3d1dde35	0.03854199
154	0x3d87329e	0.06601451
155	0xbd9bf574	-0.07615176
156	0xbdfc1c59	-0.123100944
157	0xbd85be83	-0.06530478
158	0xbe1459cc	-0.1448738
159	0xbd115785	-0.035483856
160	0x3d21a0ae	0.039459877
161	0x3dcecccf	0.10097658
162	0x3db62b80	0.08895016
163	0x3d8f6c2f	0.07003056
164	0x3d932ea4	0.0718663
165	0x3d77710a	0.060410537
166	0xbe545b40	-0.20737934
167	0xbc91f2ca	-0.017815966
168	0xbcc8467a	-0.024447668
169	0x3d14ae36	0.036298953
170	0xbcf68a9b	-0.03009539
171	0x3db83989	0.08995349
172	0x3dc7e532	0.097605124
173	0xbdd59860	-0.10429454
174	0xbc4ad1ea	-0.012379149
175	0xbdd6eb48	-0.10494095
176	0xba7f86f7	-0.00097475894
177	0xbb680bce	-0.0035407427
178	0xbd8a174e	-0.06742726
179	0x3d08ec88	0.0334287
180	0xbd8b44f1	-0.06800259
181	0x3da92553	0.08259072
182	0x3c498757	0.012300334
183	0xbda6bf34	-0.08141938
184	0x3db3409e	0.08752559
185	0x3cd87ff4	0.0264282
186	0xbca09c47	-0.019605769
187	0xbd830900	-0.06398201
188	0x3d83631a	0.064153865
189	0x3d8d5a2d	0.06901965
190	0x3d42dd41	0.047574285
191	0x3d14307c	0.03617905
192	0x3dec33fd	0.115333535
193	0xbc49bb6f	-0.012312754
194	0x3da67758	0.08128232
195	0x3d1545bb	0.036443453
196	0xbc061cc5	-0.00818557
197	0xbd962425	-0.07331113
198	0xbd8a4d36	-0.06753008
199	0xbd13ceb7	-0.03608581
200	0xbd57318b	-0.052537482
201	0x3dc6da51	0.09709609
202	0x3e0fcff8	0.14044178
203	0x3d16f9cc	0.03685932
204	0x3dc99604	0.09843066
205	0x3da9f7d9	0.08299226
206	0x3e0feeaf	0.14055894
207	0x3d0b3dac	0.03399436
208	0xbd2df22e	-0.04246729
209	0x3d6f3e4c	0.05840902
210	0x3ded0c8f	0.11574661
211	0xbe0f5af5	-0.13999541
212	0xbd86d1ea	-0.06583007
213	0xbe8ea7ed	-0.27862492
214	0x3dd8c059	0.105835624
215	0x3dd43874	0.1036233
216	0xbd68c57d	-0.056828965
217	0xbdcfe008	-0.101501524
218	0x3dc87ce1	0.09789444
219	0x3da56201	0.080753334
220	0x3d99bdb4	0.07506886
221	0xbdc398ac	-0.09550604
222	0x3d5efcdf	0.054440375
223	0x3d138be9	0.0360221
224	0x3ca5958e	0.020212915
225	0x3d7196f4	0.05898185
226	0xbd60b9de	-0.054864757
227	0xbd893159	-0.066988654
228	0x3dc89fca	0.09796102
229	0xbdf92d6c	-0.12166867
230	0xbc91d032	-0.01779947
231	0xbd98d7ea	-0.07463057
232	0x3db07812	0.086166516
233	0xbd91ae7d	-0.07113359
234	0xbcd9f60c	-0.026606582
235	0x3d214250	0.03936988
236	0x3cb9385b	0.02260988
237	0x3ddf307d	0.1089792
238	0xbd3d7002	-0.046249397
239	0xbd57efab	-0.0527188
240	0x3db8df34	0.090269476
241	0x3dc9459e	0.098277315
242	0x3e1709f9	0.14749898
243	0x3d2fdd00	0.04293537
244	0xbdff14c0	-0.124551296
245	0xbd043334	-0.032275394
246	0xb9d01179	-0.0003968587
247	0xbd565b2a	-0.052333035
248	0xbd7a3db3	-0.061093997
249	0x3e01fa6a	0.12693182
250	0xbcd65d21	-0.026167454
251	0xbcd6d0f3	-0.026222682
252	0xbccbccf9	-0.024878012
253	0x3d81352b	0.06308969
254	0x3d1e53dc	0.038654193
255	0x3d76cf0e	0.060256056

fc.f6.bias f4 [84]
0	0x3dc0208e	0.09381209
1	0xbb85a6aa	-0.004078706
2	0xbca76294	-0.020432748
3	0xbdc38bf9	-0.09548182
4	0x3c524992	0.012834923
5	0xbdc9c1e8	-0.09851438
6	0xbd04bdca	-0.03240756
7	0xbd5590db	-0.052140098
8	0x3c4f899b	0.012667085
9	0x3d7d69b8	0.0618684
10	0xbd096e1c	-0.033552274
11	0x3d861e78	0.0654878
12	0xbd51f8e8	-0.051262766
13	0xbd087757	-0.033316936
14	0xbdad91ee	-0.084750995
15	0x3d8a891a	0.06764431
16	0xbd5f23e5	-0.05447759
17	0xbd00d5fd	-0.031454075
18	0x3d70b413	0.058765482
19	0x3d656edf	0.056013938
20	0x3d4794d8	0.048725933
21	0x3d231677	0.039816346
22	0xbd0c1049	-0.03419522
23	0xbaec9939	-0.0018051035
24	0xbda1fbeb	-0.07909378
25	0xbcf16518	-0.02946715
26	0xbd967f31	-0.073484786
27	0x3adc0260	0.0016785376
28	0x3d630967	0.05542889
29	0x3da0f166	0.07858543
30	0x3da2fa96	0.07957952
31	0x3d1cce2a	0.03828255
32	0xbb53ce22	-0.003231891
33	0x3d729a97	0.05922946
34	0xbd4dc940	-0.050240755
35	0xbcb30475	-0.021852711
36	0xbcf9e0f7	-0.03050278
37	0xbb20cd3c	-0.0024536392
38	0xbde987b6	-0.11402838
39	0xbcf74f23	-0.030189103
40	0xbb4733e8	-0.0030395929
41	0x3c3e7ffd	0.0116271945
42	0xbceeee73	-0.029166436
43	0xbde1b0de	-0.11020063
44	0xbd891689	-0.06693751
45	0x3d0976f9	0.033560727
46	0x3de998af	0.11406075
47	0xbd577a4d	-0.05260687
48	0xbd125095	-0.03572138
49	0x3d27a9dc	0.040933475
50	0xbd741036	-0.059585772
51	0x3dbb485f	0.09144663
52	0xbd0fda79	-0.03512046
53	0x3d5196f5	0.051169354
54	0x3bbb2050	0.005710639
55	0xbd98407e	-0.07434176
56	0x3e3147b4	0.17312509
57	0xbc1e1694	-0.009648938
58	0x3e0f4673	0.13991718
59	0xbd1da971	-0.03849167
60	0x3d8e9c1f	0.069633715
61	0xbb9e26eb	-0.0048264167
62	0x3d3eec30	0.046611965
63	0xbd2e9db6	-0.042630874
64	0xbd80f410	-0.06296551
65	0xbcd3926c	-0.025826655
66	0x3da8e7ff	0.08247375
67	0x3d5eb8b5	0.05437537
68	0xbca91b01	-0.02064276
69	0x3d9cf081	0.0766306
70	0x3cfb3417	0.030664487
71	0x3d8dce7b	0.06924149
72	0xbd06e0ab	-0.032929104
73	0x3d97221c	0.07379553
74	0xbd163fd3	-0.03668196
75	0x3dcafe77	0.099118166
76	0xbd06710b	-0.03282265
77	0x3dcaab32	0.09895934
78	0xbd80d6e6	-0.062909886
79	0x3da97fd0	0.082763314
80	0xbd15c314	-0.036562994
81	0x3dff685c	0.12471077
82	0x3d369f01	0.04458523
83	0xbd38abac	-0.045085594

fc.f7.weight f4 [10, 84]
0	0xbe867698	-0.26262355
1	0x3d9a6924	0.07539585
2	0xbe2ebe07	-0.17064677
3	0xbbd88243	-0.0066073253
4	0x3dd4a8ec	0.10383782
5	0x3d939792	0.07206644
6	0x3ba1aac5	0.0049336874
7	0x3e14273e	0.14468095
8	0x3c91e0ae	0.017807331
9	0x3c29ed68	0.0103715435
10	0xbe1f900e	-0.15582296
11	0x3d9cdc04	0.07659152
12	0xbd6fefde	-0.058578365
13	0xbd7de885	-0.061989326
14	0x3dc0997f	0.09404277
15	0xbc8028f8	-0.015644535
16	0x3e1bcc33	0.15214615
17	0xbe2454a5	-0.16047914
18	0x3c7f9103	0.015598538
19	0x3dc829d8	0.09773606
20	0x3dfac4b5	0.1224455
21	0xbd39a488	-0.045322925
22	0x3e48273c	0.19546217
23	0xbd71184e	-0.05886107
24	0xbdf10c18	-0.11769885
25	0xbe4effd2	-0.20214775
26	0xbd83f72e	-0.0644363
27	0x3dce17f3	0.10063162
28	0x3d9b6291	0.075871594
29	0xbe00263f	-0.1251459
30	0xbc956d69	-0.018240647
31	0xbd307feb	-0.043090742
32	0xbe9135fa	-0.28361493
33	0x3dc16e8a	0.09444912
34	0x3e480450	0.19532895
35	0x3dfaa5b9	0.1223864
36	0xbd9e1121	-0.07718111
37	0x3d0e3fe7	0.03472891
38	0xbdef3d98	-0.1168167
39	0xbdcbf79a	-0.099593356
40	0xbd79ea58	-0.061014503
41	0x3dad8e42	0.08474399
42	0xbd2999ce	-0.041406445
43	0xbe02159e	-0.12703559
44	0xbd852744	-0.0650163
45	0xbe5f1d8d	-0.21788616
46	0xbd88fe0e	-0.06689082
47	0xbca5fee0	-0.020263135
48	0x3d8beeb3	0.06832638
49	0x3de9c16b	0.11413845
50	0x3ce59352	0.02802435
51	0x3def289a	0.11677666
52	0x3c18b538	0.00932055
53	0x3e0b05ed	0.1357648
54	0x3dd47fd0	0.10375941
55	0xbd61004b	-0.05493192
56	0xbd0737b4	-0.033012107
57	0x3b8127ae	0.0039414978
58	0xbe248809	-0.16067518
59	0xbda6fd05	-0.081537284
60	0x3d9c41a7	0.0762971
61	0xbe58e976	-0.21182808
62	0x3de5ffe0	0.11230445
63	0x3d529f48	0.051421434
64	0xbdd66e97	-0.10470312
65	0xbd987b55	-0.07445399
66	0xbd2486a2	-0.04016746
67	0x3cae2b5f	0.021260915
68	0xbd99614e	-0.074892625
69	0xbe09dda6	-0.13463458
70	0xbe077f51	-0.13232161
71	0xbe256cef	-0.16154836
72	0xbe1fe522	-0.15614751
73	0x3e02908a	0.1275045
74	0x3dc619f8	0.09672922
75	0x3c668918	0.014070772
76	0xbe8417a6	-0.25799292
77	0xbe88fdca	-0.26756126
78	0x3e49d5fa	0.19710532
79	0xbe03bc35	-0.12864764
80	0xbdefa7b5	-0.117019095
81	0xbcfc2c04	-0.030782707
82	0x3e50e2bb	0.20398991
83	0x3dabc180	0.083865166
84	0x3e4089d2	0.18802574
85	0xbe07d984	-0.1326657
86	0x3dcb6a6e	0.09932409
87	0xbdc040fe	-0.09387396
88	0xbe650462	-0.22364953
89	0xbda1333e	-0.07871102
90	0x3dc96609	0.09833915
91	0x3e3ef85e	0.18649432
92	0xbe356746	-0.17715177
93	0xbe1d52f3	-0.15363674
94	0x3da11729	0.078657456
95	0xbe2e2488	-0.17006123
96	0xbd56a829	-0.052406464
97	0xbdfcf113	-0.12350669
98	0x3d219f5d	0.03945862
99	0xbde841db	-0.11340686
100	0xbd2e3cf1	-0.042538587
101	0xbdd1fc2a	-0.102531746
102	0x3dbc7d99	0.09203643
103	0xbe15150f	-0.14558814
104	0xbe3fc348	-0.18726838
105	0x3d592a2f	0.053018745
106	0x3d55a30e	0.052157454
107	0x3db5a418	0.08869189
108	0xbe610875	-0.21975882
109	0xbd881522	-0.06644656
110	0xbdf64e77	-0.12026685
111	0xbe7aa09e	-0.24475333
112	0xbdadb93e	-0.08482598
113	0x3e1582b1	0.14600636
114	0xbe18a85b	-0.14907973
115	0x3e412acd	0.18863983
116	0xbda04678	-0.07825941
117	0xbde033f8	-0.10947412
118	0xbcc8b601	-0.024500849
119	0x3bc9a240	0.006153375
120	0x3d7390f5	0.059464414
121	0x3e123bbc	0.142806
122	0x3b29494c	0.0025831042
123	0xbd66c8bf	-0.05634379
124	0x3d0b9640	0.034078836
125	0xbde1954d	-0.11014805
126	0x3e08c5f8	0.13356769
127	0xbd580053	-0.052734684
128	0xbdc03eb0	-0.09386957
129	0x3d8aa536	0.06769793
130	0x3e2101d1	0.15723349
131	0xbc7e365e	-0.015515892
132	0xbde1b47c	-0.11020753
133	0x3e0eed21	0.13957645
134	0xbdeaa83b	-0.11457869
135	0x3e16b6d3	0.1471818
136	0xbd48250a	-0.04886345
137	0xbe50131e	-0.20319793
138	0xbe0c91be	-0.13727471
139	0xbb8cb639	-0.0042941836
140	0x3e35e065	0.17761381
141	0xbd41dbf2	-0.047328897
142	0x3e60532a	0.21906725
143	0x3d577240	0.05259919
144	0xbaafa5fc	-0.0013400908
145	0xbcfa9362	-0.030587856
146	0x3df65b2c	0.120291084
147	0xbd8e3824	-0.06944302
148	0xbdb6051f	-0.088876955
149	0xbd9f10f7	-0.07766908
150	0x3d54fcda	0.05199895
151	0xbe004221	-0.12525226
152	0xbe0c20e6	-0.13684425
153	0x3d9efb40	0.07762766
154	0xbd6f463a	-0.058416583
155	0xbe0b7c04	-0.13621527
156	0x3b0bf3bc	0.0021354994
157	0xbe2d4f4f	-0.16924785
158	0xbe345662	-0.17611077
159	0x3e1b9331	0.15192868
160	0xbde49e4a	-0.11163004
161	0xbd50c805	-0.050972003
162	0x3dc43eed	0.09582315
163	0x3e1f6802	0.1556702
164	0xbe4e057a	-0.20119277
165	0x3de3a4f6	0.11115448
166	0x3dcf76c1	0.101300724
167	0xbe3686e5	-0.17824896
168	0xbc03c650	-0.008042887
169	0x3dbfc22d	0.09363208
170	0x3d19d4a7	0.037556317
171	0xbd391614	-0.04518707
172	0xbe39e058	-0.18151987
173	0xbdd32349	-0.103094645
174	0xbc30d174	-0.010792125
175	0xbea7c419	-0.32766798
176	0xbdb3bce2	-0.08776261
177	0x3cb61ef9	0.022231566
178	0xbe38a52f	-0.18031763
179	0x3e1d4fb4	0.15362436
180	0xbd9d691b	-0.07686063
181	0xbd67a3dd	-0.056552757
182	0x3d36a47c	0.04459046
183	0xbe50a58e	-0.20375654
184	0x3d3eaede	0.046553485
185	0x3e084ff2	0.13311747
186	0x3d3ec6f1	0.046576444
187	0x3daa169b	0.08305093
188	0xbd913201	-0.070896156
189	0xbe0b5ea4	-0.13610321
190	0x3d0802a7	0.033205654
191	0xbd860d6a	-0.06545527
192	0x3e270c80	0.16313362
193	0x3e1fdae0	0.15610838
194	0xbd3d4ff9	-0.046218846
195	0xbcfb00ab	-0.030639967
196	0x3e5ea4e1	0.21742584
197	0xbe6c8db3	-0.23100929
198	0xbd3d9b3a	-0.046290614
199	0xbd5b2536	-0.053502284
200	0x3e1e6a7e	0.15470311
201	0xbd876a32	-0.06612052
202	0x3e86492f	0.2622771
203	0x3cc22c7d	0.023702854
204	0x3cb69054	0.022285618
205	0x3de6d71b	0.11271497
206	0x3d2594d9	0.040425155
207	0x3cb26c45	0.021780143
208	0xbdd82e2a	-0.1055568
209	0x3e1b98a4	0.15194947
210	0x3e25bd5c	0.16185516
211	0xbda91c3f	-0.08257341
212	0x3db3a1f9	0.08771128
213	0x3dc9d78a	0.09855564
214	0x3bb7fb63	0.0056146844
215	0x3c587ac1	0.013212861
216	0xbcd43535	-0.025904277
217	0xbd8115a4	-0.06302956
218	0xbbbd2745	-0.0057725036
219	0x3dfe905b	0.12429877
220	0x3d12bc0a	0.03582386
221	0x3d8243fb	0.063606225
222	0x3dea335f	0.114355795
223	0x3d65a095	0.056061346
224	0x3d834804	0.0641022
225	0x3d99a02f	0.07501256
226	0xbdd82d63	-0.10555532
227	0xbc2e98d4	-0.010656554
228	0x3e272a69	0.16324772
229	0xbd0840a4	-0.03326477
230	0x3e505041	0.20343114
231	0xbd7c8bb1	-0.061656658
232	0xbb19b745	-0.0023455184
233	0x3d454883	0.048164856
234	0xbe9e7a52	-0.30952698
235	0xbebe1af5	-0.37129942
236	0xbd6b5ac7	-0.05745962
237	0xbb44bf69	-0.0030021316
238	0xbdeaab3c	-0.114584416
239	0x3e1193a7	0.14216481
240	0x3dd85ea7	0.105649285
241	0xbe38e0cc	-0.18054503
242	0xbe60218c	-0.21887797
243	0x3def8213	0.116947316
244	0xbd1450ad	-0.03620975
245	0x3ae046ba	0.0017110922
246	0x3e308a6d	0.17240305
247	0xbe576cc5	-0.21037586
248	0x3d083aa1	0.033259038
249	0xbe330c4f	-0.17485164
250	0xbe18cc5a	-0.14921704
251	0xbd515fd7	-0.05111679
252	0xbd63c1b8	-0.055604666
253	0x3e2d3422	0.16914418
254	0xbe382331	-0.17982174
255	0xbdcd5f28	-0.10027915

fc.f7.bias f4 [10]
0	0xbd88f62e	-0.0668758
1	0x3d046d9f	0.032331105
2	0xbdc39324	-0.09549549
3	0xbd62ff7a	-0.055419423
4	0xbdd700eb	-0.10498222
5	0xbca1786d	-0.019710744
6	0x3c1ad6a8	0.009450592
7	0x3ca2b4a8	0.019861534
8	0x3c774fb0	0.015094683
9	0x3df0a30d	0.117498495
