mnist_classifier/weights/lenet_epoch=28_test_acc=0.991.pth (torch, 181197 bytes, 10 tensors)

convnet.c1.weight f4 [6, 1, 5, 5]
0	0xbe00836b	-0.12550132
1	0x3d17d895	0.037071783
2	0x3e8310e0	0.25598812
3	0xbe1b94b4	-0.15193444
4	0xbee944e4	-0.45560372
5	0xbdb0cdcf	-0.08633005
6	0xbe0d5233	-0.13800888
7	0x3f00e504	0.5034945
8	0x3ea3c4b4	0.3198601
9	0xbed265d2	-0.41093308
10	0xbe9f03ba	-0.3105753
11	0xbe20f46a	-0.15718237
12	0x3eed988f	0.46405455
13	0x3e829e3d	0.2551135
14	0xbe3f4f05	-0.18682487
15	0xbe6262b5	-0.22107966
16	0xbe367bf8	-0.17820728
17	0x3d6dc09f	0.058045026
18	0x3ea2a6e7	0.3176796
19	0xbd5a0154	-0.053223923
20	0x3dfa27eb	0.12214645
21	0xbd7b7845	-0.061393995
22	0xbdf368ed	-0.118852474
23	0x3e605228	0.2190634
24	0x3ea87269	0.32899788
25	0xbe0be32f	-0.13660882
26	0xbdb78a22	-0.089618936
27	0xbe43ddf2	-0.19127634
28	0xbd9698d4	-0.073533684
29	0x3d00bd05	0.031430263
30	0xbeb207fd	-0.3477172
31	0xbe751528	-0.23933852
32	0xbe6857d8	-0.2268976
33	0x3e8f33d0	0.27969217
34	0x3ed7b5b6	0.42130822
35	0xbec540d4	-0.38526022
36	0xbe096d91	-0.13420703
37	0x3e175b6c	0.14780968
38	0x3ee7f52e	0.45304245
39	0xbcf84330	-0.030305475
40	0x3c29e842	0.010370316
41	0x3d4648ef	0.0484094
42	0x3f08093f	0.5313911
43	0x3e4eeeb1	0.20208241
44	0x3d3170de	0.04332053
45	0x3e697c3a	0.22801295
46	0x3ec38b93	0.38192424
47	0x3e19855b	0.14992277
48	0xbe1bc8e3	-0.15213351
49	0x3dc0ccca	0.094140604
50	0x3e9860e4	0.29761422
51	0x3e8e7c14	0.2782904
52	0x3e2ae9fa	0.16690817
53	0x3ea72ce6	0.32651442
54	0x3eb9247c	0.36160648
55	0xbce15bda	-0.027509619
56	0xbd47bb71	-0.048762742
57	0x3d4c64bf	0.049900766
58	0xbe408d98	-0.18804014
59	0x3e08a894	0.13345557
60	0xbea51b9e	-0.32247633
61	0xbe2fc91a	-0.17166558
62	0xbe621870	-0.22079635
63	0xbe5e0d6e	-0.2168481
64	0xbe6ce0bb	-0.23132603
65	0xbea36f5e	-0.31920904
66	0xbe45f98c	-0.19333476
67	0xbe55d733	-0.20882873
68	0xbdb37450	-0.08762419
69	0x3d90942d	0.07059512
70	0xbd2b8250	-0.041872323
71	0xbe56c40f	-0.20973228
72	0xbe572e7e	-0.21013829
73	0xbdbaa28f	-0.09113037
74	0xbd5623d4	-0.052280262
75	0x3ccd5f85	0.025069961
76	0xbdfe62df	-0.12421202
77	0xbe6c9a99	-0.2310585
78	0xbe618022	-0.22021535
79	0xbd801981	-0.062548645
80	0x3e70d96d	0.23520441
81	0xbe9caca9	-0.3060048
82	0xbed94ecb	-0.42442927
83	0x3d172566	0.0369009
84	0xbe47e04b	-0.19519155
85	0x3e66e5eb	0.22548644
86	0x3e83cc16	0.25741643
87	0x3ec4cfd4	0.3843981
88	0x3e079ea5	0.13244112
89	0x3e80670a	0.25078613
90	0x3e5918db	0.21200888
91	0x3eb3829e	0.3506059
92	0x3dec4f31	0.11538542
93	0x3e8dbeb3	0.27684554
94	0x3e33e1fa	0.17566672
95	0xbeb2b7d7	-0.34905884
96	0xbbb22421	-0.005436436
97	0xbcf8546b	-0.030313691
98	0xbe75882d	-0.23977728
99	0xbe5b4e18	-0.21416509
100	0x3d40c212	0.04706008
101	0xbe713923	-0.23556952
102	0xbe095e6a	-0.13414922
103	0xbe1c86fa	-0.15285864
104	0xbdde3d2a	-0.1085151
105	0xbe73697c	-0.23770708
106	0xbe93a3b8	-0.28835845
107	0xbd863079	-0.06552214
108	0x3c1da42f	0.009621664
109	0x3c2cb769	0.010541775
110	0x3e3af9ef	0.18259405
111	0xbe5fd602	-0.21858981
112	0xbe995121	-0.2994471
113	0xbe28745c	-0.16450638
114	0xbe855a00	-0.26045227
115	0x3ed71884	0.4201089
116	0x3eecdb06	0.46260852
117	0x3e91ed92	0.28501564
118	0x3de14c25	0.110008515
119	0xbd55ca32	-0.05219478
120	0x3d5a6269	0.053316507
121	0x3e35c615	0.17751344
122	0x3e42efa4	0.19036728
123	0x3e07e307	0.13270198
124	0x3e3e8aa2	0.18607572
125	0x3d7c5904	0.06160833
126	0x3ea0c404	0.31399548
127	0x3e500456	0.20314154
128	0xbe7337df	-0.23751782
129	0xbca5fc59	-0.02026193
130	0x3eb2e681	0.34941486
131	0x3eab1d06	0.3342058
132	0xbde12369	-0.10993082
133	0xbe6062c1	-0.21912672
134	0xbe5f1dad	-0.21788664
135	0x3ecbd8b6	0.39813775
136	0xbd4493a9	-0.047992382
137	0xbe8ee475	-0.27908674
138	0x3ce564a8	0.028002098
139	0xbe14212f	-0.14465784
140	0x3e417179	0.18890943
141	0xbd2d1d09	-0.04226402
142	0xbe2cd791	-0.16879107
143	0xbdf5c16b	-0.11999782
144	0x3c7fde67	0.01561699
145	0x3da712d7	0.0815789
146	0x3c9fb12f	0.019493667
147	0xbd9f0ced	-0.07766137
148	0xbe773cec	-0.24144334
149	0x3c983677	0.018580658

convnet.c1.bias f4 [6]
0	0x3d4687f9	0.048469517
1	0xbd319be1	-0.04336155
2	0x3dbd446b	0.09241565
3	0x3e396b7f	0.18107413
4	0x3d93fd8e	0.07226096
5	0xbbb06def	-0.005384199

convnet.c3.weight f4 [16, 6, 5, 5]
0	0xbd1a608e	-0.037689738
1	0xbba5dc70	-0.0050616786
2	0xbd18d8d6	-0.037316166
3	0x3e2074c5	0.15669544
4	0x3e5d3366	0.21601638
5	0x3d8deab3	0.06929531
6	0xbcc1baa9	-0.023648577
7	0x3d84c67f	0.064831726
8	0xbd1cf60f	-0.038320597
9	0xbce11aa8	-0.027478531
10	0x3e1cd0a0	0.15313959
11	0x3dc72c0e	0.097252
12	0xbdd031c5	-0.10165743
13	0xbd336269	-0.043795023
14	0xbe1d4b77	-0.15360819
15	0x3c4ba0d3	0.01242848
16	0x3d68f73f	0.056876417
17	0xbe5aea33	-0.21378402
18	0xbdd5ff3a	-0.10449071
19	0xbd3a0d5d	-0.0454229
20	0xbd376d86	-0.044782184
21	0x3dabc61a	0.08387394
22	0xbda6e977	-0.08149999
23	0xbdab9af9	-0.08379168
24	0xbd2bc97e	-0.041940205
25	0xbd813575	-0.06309024
26	0xbd7d275c	-0.061805114
27	0xbd97ba84	-0.07408622
28	0x3db166f4	0.08662215
29	0xbb4167e6	-0.0029511391
30	0xbcd07d40	-0.025450349
31	0xbd2d3952	-0.042290993
32	0xbdc290df	-0.09500288
33	0x3e4dcf2f	0.20098566
34	0x3e2da608	0.16957867
35	0xbc7a0792	-0.015260594
36	0x3e0ff1b0	0.1405704
37	0x3e3a2cc1	0.18181135
38	0x3e85d820	0.26141453
39	0xbd8f849d	-0.07007716
40	0x3d50d205	0.05098154
41	0x3e3c2f6e	0.18377468
42	0x3e880c79	0.26572016
43	0x3cb81188	0.022469297
44	0xbe9599fa	-0.29219037
45	0x3c78426f	0.015152558
46	0xbc9f13a2	-0.019418541
47	0xbe6a613c	-0.22888654
48	0xbe236507	-0.15956508
49	0xbe1788b0	-0.14798236
50	0x3d7f871b	0.062384706
51	0x3d576c80	0.052593708
52	0x3d4364e8	0.047703654
53	0xbb8ecc2e	-0.004357836
54	0xbd1c98d1	-0.038231675
55	0x3ca14c2f	0.019689647
56	0xbcbcdf6f	-0.02305576
57	0x3d94cb82	0.072653785
58	0xbdc8d004	-0.09805301
59	0xbe4e3847	-0.20138656
60	0xbd909dee	-0.07061373
61	0xbd419f2e	-0.047270946
62	0xbd84f832	-0.06492652
63	0xbe06e40c	-0.1317293
64	0x3da9af96	0.082854435
65	0xbca1159c	-0.019663624
66	0xbe4bc26c	-0.19898385
67	0xbe126ebe	-0.14300057
68	0x3d892265	0.06696013
69	0x3d806e71	0.06271065
70	0xbc610661	-0.013734431
71	0x3d864c03	0.06557467
72	0x3cdee27b	0.027207604
73	0x3d5d726d	0.054064203
74	0xbd2b7e5c	-0.041868553
75	0xbd8892e5	-0.06668643
76	0xbc6c5582	-0.0144246835
77	0xbdb60611	-0.08887876
78	0xbde9e61c	-0.11420843
79	0xbce55ffc	-0.02799987
80	0xbd4dbeaa	-0.05023066
81	0x3d8ee548	0.06977326
82	0x3deed56f	0.11661803
83	0x3d79d25f	0.06099164
84	0x3de5f2e4	0.11227968
85	0x3c7ce43f	0.0154352775
86	0xbb1cdb2a	-0.0023934343
87	0x3d8957ef	0.06706225
88	0xbc9429f9	-0.01808642
89	0xbe3e3f20	-0.18578768
90	0x3e02bd2a	0.12767473
91	0x3e0667fd	0.13125606
92	0xbdcbc655	-0.09949938
93	0xbdb410ce	-0.08792268
94	0xbd12066a	-0.03565065
95	0x3e6f57ea	0.2337338
96	0xbe7114a8	-0.23543036
97	0xbd596c59	-0.053081844
98	0xbd1bfccc	-0.038082883
99	0x3cf8474a	0.03030743
100	0xbd70827d	-0.058718193
101	0xbdfdd969	-0.12394983
102	0x3d868111	0.06567586
103	0x3d76b0e1	0.06022728
104	0x3d547c0b	0.05187611
105	0xbd9b9c51	-0.07598174
106	0x3d405931	0.04696006
107	0xbc86629f	-0.016404448
108	0x3c89d758	0.016826317
109	0x3c0c41c4	0.008560602
110	0xbc1014b1	-0.008793996
111	0x3da3189e	0.0796368
112	0xbd5b6675	-0.053564508
113	0x3c954877	0.01822303
114	0x3d82b2b5	0.06381742
115	0x3de77991	0.11302484
116	0xbd762aaf	-0.0600993
117	0xbd77b6c6	-0.06047704
118	0xbe375e8b	-0.17907159
119	0x3cd3839d	0.025819594
120	0x3cc6d002	0.024269108
121	0xbd650b65	-0.05591907
122	0xbdde6516	-0.10859124
123	0x3d559300	0.052142143
124	0xbdca3d4c	-0.09874973
125	0xbdb8c081	-0.09021092
126	0xbd794764	-0.0608591
127	0xbd7203d1	-0.05908567
128	0xbc4cca66	-0.012499427
129	0x3cb5149c	0.022104554
130	0xbbba2cf7	-0.0056816298
131	0xbe0f7510	-0.140095
132	0xbe540b49	-0.2070743
133	0xbc6c65bb	-0.014428551
134	0xbcadbfb2	-0.021209572
135	0xbde440aa	-0.11145146
136	0xbe5250ce	-0.20538637
137	0xbd3fb033	-0.046798896
138	0x3db85420	0.090004206
139	0x3e1560e8	0.14587748
140	0x3d9fa256	0.07794635
141	0xbe6be114	-0.23035079
142	0x3e9748d8	0.29547763
143	0x3dbc87eb	0.09205612
144	0x3dc3a6c9	0.09553296
145	0xbd4ada6c	-0.04952471
146	0x3dea3a96	0.11436956
147	0x3e4bd052	0.19903687
148	0xbb970790	-0.004609056
149	0xbdc1b9d2	-0.094592705
150	0xbd85cc13	-0.06533065
151	0xbdc3d1a6	-0.09561472
152	0x3d0755ce	0.033040814
153	0xbe0e97f0	-0.13925147
154	0xbd8e3cd7	-0.06945198
155	0x3d7850a8	0.060623795
156	0x3bf33491	0.007422038
157	0xbd024679	-0.03180549
158	0xbdea0e98	-0.11428565
159	0x3cb28b08	0.02179481
160	0xbc854f61	-0.016273202
161	0xbe36874b	-0.17825048
162	0xbd94393f	-0.07237481
163	0xbe873192	-0.26405007
164	0xbe49d46d	-0.1970994
165	0x3c68d269	0.014210322
166	0xbe258444	-0.16163737
167	0x3d2c5942	0.04207731
168	0xbe6374cd	-0.22212525
169	0xbe507134	-0.20355684
170	0xbdaf51e3	-0.085605405
171	0x3d0f4af5	0.034983594
172	0x3da9d0ff	0.08291816
173	0xbd837edc	-0.06420681
174	0xbde5ea5e	-0.112263426
175	0x3e1b16e5	0.15145452
176	0x3e012858	0.12613046
177	0x3e01076d	0.12600489
178	0x3d290820	0.041267514
179	0x3da858ee	0.08220087
180	0x3dd6f611	0.10496152
181	0x3e01ce47	0.12676345
182	0x3dc24490	0.094857335
183	0xbd16498b	-0.03669123
184	0x3ccfebfe	0.025381085
185	0x3d2e68d7	0.04258045
186	0x3b7f9be5	0.0039002832
187	0xbdb46dd7	-0.08810013
188	0xbe1414d2	-0.14461067
189	0x3d580264	0.052736655
190	0xbdbbe0ba	-0.091737226
191	0xbdbefb4b	-0.09325274
192	0xbe317322	-0.17329076
193	0xbe8da406	-0.27664202
194	0xbe79720a	-0.24359909
195	0xbe16ef05	-0.14739616
196	0xbd2cb7c3	-0.042167436
197	0xbe4b9d16	-0.19884142
198	0xbe116e0f	-0.1420214
199	0xbe34882f	-0.17630075
200	0x3be3a1af	0.0069467644
201	0xbe29f7ce	-0.16598436
202	0xbe2511a2	-0.16120008
203	0xbe720c08	-0.23637402
204	0x3b9eb7eb	0.004843702
205	0xbd2e779b	-0.042594533
206	0xbe30a1a8	-0.17249167
207	0xbe7cfd87	-0.24706088
208	0xbe557486	-0.20845231
209	0xbe04644e	-0.12928888
210	0x3dac2b6f	0.08406722
211	0xbd4b4d8e	-0.04963451
212	0xbbed034d	-0.0072330595
213	0xbd0d7943	-0.034539472
214	0x3cb76fb6	0.022392135
215	0xbcbeb173	-0.023277974
216	0x3dcb4dca	0.099269465
217	0x3e0c649e	0.13710257
218	0x3e35f925	0.17770822
219	0x3e298181	0.16553308
220	0x3deacb98	0.11464614
221	0x3d8bceec	0.068265766
222	0x3c26820e	0.010162843
223	0x3da1573d	0.078779675
224	0x3cd89c83	0.026441818
225	0xbd491bc9	-0.049098764
226	0xbe0e86fb	-0.13918678
227	0xbd9ab884	-0.07554725
228	0x3d4f9837	0.050682273
229	0x3b4b33f7	0.0031006315
230	0x3cff0ef9	0.03113507
231	0xbd4ecce8	-0.050488383
232	0x3d4de97e	0.050271504
233	0x3e250547	0.16115294
234	0x3e0794c7	0.13240348
235	0x3e168f00	0.14702988
236	0x3dbd04f7	0.092294626
237	0x3de29bb8	0.11064857
238	0x3e2c0baf	0.16801332
239	0x3dddfcfb	0.10839268
240	0xbe1a0436	-0.15040669
241	0xbd22ea8d	-0.039774466
242	0xbd69678c	-0.056983516
243	0x3e28da71	0.16489579
244	0xbdfa9712	-0.122358456
245	0x3b405e3a	0.0029353038
246	0x3da63cf9	0.08117098
247	0x3c7e5362	0.01552281
248	0xbcc9435e	-0.024568256
249	0xbdc0155a	-0.093790725
250	0xbe071700	-0.13192368
251	0xbd14eedb	-0.036360603
252	0x3d835f28	0.06414634
253	0x3c839004	0.016059883
254	0x3df2fdbd	0.11864803
255	0x3de4c3b1	0.11170138

convnet.c3.bias f4 [16]
0	0x3cbe56cf	0.023234753
1	0x3d97b9a7	0.07408457
2	0xbd9a12fd	-0.07523153
3	0x3d500beb	0.050792616
4	0x3d583086	0.05278065
5	0xbdc71a6c	-0.097218364
6	0x3d82705f	0.06369089
7	0x3c4e2a5c	0.012583341
8	0xbd311abc	-0.043238387
9	0xbd1bebb4	-0.03806658
10	0x3cbf71b9	0.023369657
11	0x3e1adb16	0.15122637
12	0xbd7e68c7	-0.062111642
13	0xbd541f91	-0.051787917
14	0xbdafebc4	-0.085898906
15	0xbd08f5a6	-0.033437394

convnet.c5.weight f4 [120, 16, 4, 4]
0	0x3ca6abe7	0.020345641
1	0xbd184370	-0.03717369
2	0x3cf65557	0.03006999
3	0xbd8de36f	-0.06928145
4	0xbd81f206	-0.063449904
5	0x3c090222	0.008362325
6	0xbda8e024	-0.082458764
7	0xbcc5a77d	-0.024127716
8	0xbd72ad47	-0.05924728
9	0x3c566f59	0.013088071
10	0xbda87a09	-0.08226401
11	0x3c9740b8	0.018463477
12	0xbd8ab498	-0.06772727
13	0xbbab4fd7	-0.0052280235
14	0xbd3a7a58	-0.045526832
15	0xbcc9fc01	-0.024656298
16	0x3cb52b9b	0.02211552
17	0x3c8d3fdd	0.017242366
18	0xbdada3ef	-0.084785335
19	0xbca945d8	-0.020663187
20	0x3d5407b4	0.05176516
21	0x3ca4254f	0.020037321
22	0xbcdc2b82	-0.026876215
23	0xbd9b8074	-0.0759286
24	0xbcee7db5	-0.029112676
25	0x3cd70959	0.026249574
26	0xbcd6d131	-0.026222797
27	0xbbc8f424	-0.0061326195
28	0xbd6d30f2	-0.057908006
29	0x3d06ef38	0.03294298
30	0x3d114d98	0.03547439
31	0x3b4cd0c0	0.0031252354
32	0x3c2b917c	0.010471698
33	0x3d5c6628	0.05380836
34	0x3cc471c6	0.023980033
35	0xbd85b8f3	-0.06529417
36	0xbd5ae1e2	-0.053438075
37	0x3d0396f7	0.032126393
38	0xbceed028	-0.029151991
39	0xbd9a726d	-0.07541356
40	0x3d2c1dae	0.042020492
41	0xbce4f5a4	-0.027949162
42	0x3bd38230	0.0064547285
43	0x3b344078	0.0027504247
44	0x3ce0c805	0.027439127
45	0x3d16ceca	0.036818303
46	0xbd939384	-0.07205871
47	0xbd7f4baa	-0.06232802
48	0xbd86aaf0	-0.065755725
49	0x3cdc5e8b	0.02690055
50	0xbd6ed2ab	-0.058306377
51	0x3ba1fefa	0.0049437257
52	0xbd32e4ed	-0.043675352
53	0xbcf442f5	-0.029817084
54	0xbc93a2e3	-0.018022006
55	0xbd980442	-0.07422687
56	0x3b396024	0.0028286064
57	0x3cda6f16	0.026664298
58	0x3d1d4aa4	0.03840126
59	0x3d054efe	0.032546036
60	0xbda971fc	-0.08273694
61	0xbd9a62dc	-0.07538387
62	0xbda60a57	-0.08107441
63	0xbcc8f4f3	-0.024530863
64	0xbc9cc3b0	-0.01913628
65	0xbaf650a7	-0.0018792347
66	0xbd077a28	-0.03307548
67	0x3d13c545	0.036076803
68	0xbc7dff4e	-0.015502764
69	0xbb34c157	-0.002758106
70	0x3c7b5d6a	0.015342096
71	0x3d09afa4	0.03361477
72	0x3d622c02	0.05521775
73	0xbc7c7f95	-0.015411277
74	0xbd83cf3a	-0.0643601
75	0x3d04626a	0.032320417
76	0xbd1e2b7c	-0.03861569
77	0x3cf4a06f	0.029861657
78	0x3cdb3750	0.026759773
79	0x3d55f157	0.052232113
80	0x3c1f99ce	0.00974126
81	0x3cfb7fee	0.03070065
82	0xbc0e573a	-0.008687789
83	0xbd7f300f	-0.06230169
84	0xbd1b4ff7	-0.037918057
85	0x3d44751c	0.047963247
86	0xbd38d537	-0.045125213
87	0xbcf131b5	-0.029442647
88	0x3d0b6262	0.034029372
89	0xbd8ee64c	-0.069775194
90	0x3c1c639d	0.009545234
91	0x3d0e4c44	0.0347407
92	0x3cb41d85	0.021986732
93	0xbc251d99	-0.010077857
94	0xbb6577e4	-0.0035014087
95	0x3c0a39c7	0.008436627
96	0xbd006285	-0.031343956
97	0x3cfc1e34	0.03077612
98	0xbd6b0495	-0.057377417
99	0xbd726e54	-0.05918725
100	0xbc5d5e7b	-0.013511295
101	0x3ce42c8c	0.027853273
102	0xbd127132	-0.035752483
103	0x3c3c50ed	0.011493904
104	0x3caca668	0.021075442
105	0x3d461aa4	0.04836525
106	0xbd848884	-0.06471351
107	0xbcb8317f	-0.02248454
108	0xbd455eaf	-0.048186
109	0x3bc9f181	0.0061628227
110	0x3ae978c4	0.001781248
111	0xbd8fe460	-0.07025981
112	0x3bcac765	0.0061883205
113	0x3ca1eede	0.019767221
114	0x3bca295d	0.0061694817
115	0xbd5e6229	-0.05429283
116	0xbd11b3f3	-0.035572004
117	0xbd11077f	-0.03540754
118	0xb9e0db5b	-0.00042888042
119	0xbc13e46d	-0.009026629
120	0x3a65e3b8	0.00087695895
121	0x3d068c66	0.032848738
122	0xbc2f798c	-0.010710131
123	0xbcc33438	-0.02382861
124	0xbd6fbae4	-0.058527842
125	0xbcbc56e4	-0.022990651
126	0x3c7f1417	0.015568755
127	0xbd5dd636	-0.054159366
128	0xbd4e89e9	-0.05042449
129	0xbd94b8e4	-0.072618276
130	0xbcf6b145	-0.030113826
131	0x3c953dac	0.018217884
132	0xbd483d7c	-0.04888676
133	0xbd29cceb	-0.04145519
134	0xbd07a036	-0.033111773
135	0x3d6eadf7	0.058271375
136	0xbd84d417	-0.064857654
137	0xbd868f13	-0.06570258
138	0x3d53beb8	0.051695555
139	0xbd6c9cf7	-0.05776688
140	0xbc629200	-0.013828754
141	0xbc7d27fa	-0.015451426
142	0xbc756e0d	-0.014979851
143	0xbd3a21dc	-0.045442447
144	0xbd5cf042	-0.053940065
145	0xbd58010f	-0.052735385
146	0x3c15e2ec	0.009148341
147	0x3b27d4fe	0.002560913
148	0xbd77de50	-0.060514748
149	0xbd863805	-0.06553654
150	0x3d19bc2b	0.037532967
151	0x3d1d5fa9	0.038421307
152	0xbc6eb911	-0.01457049
153	0x3cb98b28	0.022649363
154	0x3cf88a58	0.030339405
155	0xbb3378a9	-0.0027385151
156	0xbd1bc9d1	-0.038034264
157	0xbd39060d	-0.045171786
158	0xbc812cfa	-0.015768517
159	0x3c884ba4	0.01663763
160	0xbd550801	-0.052009586
161	0x3c654ea2	0.013995798
162	0x3cdc2125	0.026871273
163	0xbd096296	-0.033541285
164	0xba8d27cf	-0.001076931
165	0x3c8297d8	0.015941545
166	0x3ca2525c	0.019814663
167	0xbb7c4914	-0.0038495706
168	0x3d4850ec	0.048905298
169	0x3d2dd470	0.042438924
170	0xbd69dce0	-0.05709541
171	0xbba0bdda	-0.0049054446
172	0xbd989ff1	-0.074523814
173	0xbd91971b	-0.07108899
174	0xbd7d2785	-0.061805267
175	0x3d4a4f45	0.049392004
176	0x3bb24d3b	0.0054413355
177	0x3d239f30	0.039946735
178	0xbd51fbac	-0.051265404
179	0x3ca9ea91	0.020741733
180	0xbd6db641	-0.05803514
181	0xbcb4b89a	-0.022060681
182	0x3cbb6b9d	0.022878462
183	0xbcd9c8af	-0.026584951
184	0xbbea3980	-0.007147968
185	0xbd41bf24	-0.047301427
186	0x3cc2c683	0.023776298
187	0x3afc57db	0.0019252257
188	0xbd5072ee	-0.050890855
189	0xbda70eb0	-0.08157098
190	0x3bebaa25	0.0071919137
191	0x3b25f40b	0.0025322463
192	0xbd003a6b	-0.03130571
193	0xbc1a5e1c	-0.0094218515
194	0xbb8e7434	-0.0043473486
195	0xbd475e83	-0.048674118
196	0xbd0f4106	-0.03497412
197	0x3d2fa9e4	0.04288663
198	0xbd47b3fd	-0.048755635
199	0xbc9dc8b9	-0.019260751
200	0xbd38f14e	-0.045152
201	0xbd71711c	-0.05894576
202	0x3c1356cc	0.008992862
203	0x3bb1b114	0.0054227207
204	0xbd7907d8	-0.060798496
205	0xbcd48309	-0.025941389
206	0xbd058285	-0.032595176
207	0xbd28cd80	-0.041211605
208	0xbd303a23	-0.043024193
209	0xbc64c2c6	-0.013962453
210	0xbc2b4a4b	-0.010454725
211	0xbd966f98	-0.073455036
212	0xbd736946	-0.05942657
213	0xbbe98b3d	-0.007127194
214	0xbd7b117f	-0.061295982
215	0xbbb48c5d	-0.0055098967
216	0xbc0e935c	-0.008702125
217	0xbda940ba	-0.08264299
218	0xbc8245cc	-0.015902422
219	0xbd39f3e3	-0.045398604
220	0x3c7f36d9	0.015577042
221	0xbd26e76f	-0.040748056
222	0xba7fc9b8	-0.00097575365
223	0xbd72f640	-0.059316874
224	0xbd0a5f3c	-0.03378223
225	0x3cbe3a1b	0.023221066
226	0x3c9236c4	0.01784838
227	0x3c85b620	0.016322196
228	0x3d064c3e	0.032787554
229	0x3ba7fed8	0.0051268153
230	0xbd95de0f	-0.07317745
231	0x3b9b027b	0.0047305203
232	0xbcf153a4	-0.029458828
233	0xbd47aaa4	-0.04874672
234	0xbd901bf2	-0.0703658
235	0xbb3e2eec	-0.0029019667
236	0xbc5ab822	-0.013349565
237	0xbcd7eee9	-0.026359038
238	0xbd513e51	-0.05108482
239	0xbcbadc2f	-0.02281007
240	0xbd8c62b8	-0.068547666
241	0x3bf01003	0.0073261275
242	0x3bed99ae	0.007250986
243	0xbd028855	-0.031868298
244	0xbd549e93	-0.05190904
245	0xbd4f03d6	-0.050540768
246	0xbd6d8984	-0.057992473
247	0x3ce3f81f	0.027828274
248	0xbd257036	-0.040390216
249	0xbd083be0	-0.033260226
250	0x3c812038	0.015762433
251	0x3d06c7a1	0.032905225
252	0x3cc122f5	0.02357624
253	0x3d35b375	0.044360597
254	0xbd2e2fcd	-0.042526055
255	0xbd811e41	-0.063045986

convnet.c5.bias f4 [120]
0	0x3bf9ec6e	0.0076270616
1	0xbd965c2a	-0.07341798
2	0x3ceac3f4	0.02865789
3	0xbcb3a152	-0.02192751
4	0xbc9e74da	-0.019342829
5	0xbb780662	-0.0037845601
6	0xbc9aa9a1	-0.018879713
7	0x3d9d4b94	0.07680431
8	0x3d5552c8	0.0520809
9	0x3baf6711	0.0053528626
10	0x3dd5d9e9	0.10441954
11	0x3d448b32	0.04798431
12	0x3cf32c8b	0.029684326
13	0x3db82865	0.0899208
14	0x3c544744	0.012956444
15	0x3d5cc5a0	0.053899407
16	0x3d54ad64	0.05192317
17	0x3a9cdf78	0.0011968454
18	0xbd48a9e8	-0.04899016
19	0x3c7d9c2e	0.015479131
20	0x3b3dfe70	0.0028990768
21	0x3c6c9d32	0.014441775
22	0x3d856fd7	0.065154724
23	0x3dc09da7	0.0940507
24	0xbcb36acb	-0.021901509
25	0xbc63e0f6	-0.013908615
26	0xbc87bb2e	-0.016568746
27	0x3c2f50f0	0.010700449
28	0x3d39619c	0.045259103
29	0xbd480ddf	-0.048841354
30	0xbd4cf650	-0.05003959
31	0x3cb0b389	0.021569984
32	0x3b4373e6	0.002982372
33	0xbd52dbb1	-0.051479045
34	0x3d56945a	0.052387573
35	0x3c71266e	0.014718635
36	0x3d8ee7a6	0.06977777
37	0xbc82288e	-0.015888479
38	0x3deb6d2a	0.11495431
39	0x3a145e74	0.00056598266
40	0x3d39e42f	0.04538363
41	0xb9e5ed0c	-0.00043854897
42	0x3b2bfdcf	0.002624381
43	0xbc38eaa9	-0.011286416
44	0x3dab8291	0.08374513
45	0x3d18bb8b	0.03728823
46	0x3da9caa3	0.08290603
47	0xbd5cd6bb	-0.05391572
48	0xbd542547	-0.051793363
49	0x3d0c647e	0.034275524
50	0xbc7fac9f	-0.015605121
51	0xb9c0a4ce	-0.00036743883
52	0x3d023199	0.03178558
53	0x3d23e08c	0.040009066
54	0xbc0e6cd0	-0.008692935
55	0xbd0b0614	-0.033941343
56	0x3ca9bd6a	0.020720202
57	0x3d5678ef	0.052361425
58	0xbd5987c1	-0.05310798
59	0x3d1c47fc	0.038154587
60	0x3d99a8ff	0.075029366
61	0xbd53a7b1	-0.051673595
62	0x3d280dac	0.041028664
63	0x3d036fcf	0.03208905
64	0xbbf41d40	-0.007449776
65	0xbcf98f90	-0.030463964
66	0xbd0d11ab	-0.034440678
67	0x3cb3a688	0.021929994
68	0xbb35a341	-0.0027715715
69	0xbd08b9da	-0.033380367
70	0x3cfe1294	0.031014718
71	0xbd653c2e	-0.055965595
72	0x3c949639	0.018138038
73	0xbccaabc6	-0.024740111
74	0xbca1a5f5	-0.019732455
75	0xbd11a337	-0.035556044
76	0xbbbfda65	-0.005854892
77	0x3d8b113f	0.06790399
78	0xbc34d03d	-0.011035976
79	0xbc94001a	-0.018066455
80	0x3b019e45	0.0019778174
81	0x3cfb8e2f	0.030707447
82	0xbc480d41	-0.012210191
83	0xbc59e8ad	-0.013300103
84	0x3d785210	0.060625136
85	0x3d035bc2	0.03206993
86	0xbac82f1f	-0.0015272832
87	0x3c4b5030	0.012409255
88	0x3c5a3991	0.013319389
89	0x3d7c7a44	0.06164004
90	0xbb6ddfcf	-0.003629673
91	0xbd639f6c	-0.05557196
92	0xbcabb311	-0.020959409
93	0x3c4f96c2	0.012670221
94	0x3d3cc75a	0.046088554
95	0xbd6f6ace	-0.058451466
96	0x3c26a5fc	0.01017141
97	0x3c59e268	0.013298608
98	0xbd5e9a5c	-0.054346427
99	0x3d3e394b	0.046441358
100	0xbce96930	-0.02849254
101	0x3c986326	0.018601965
102	0x3d2318ea	0.03981868
103	0x3da759a5	0.08171395
104	0xbcb857ed	-0.022502864
105	0xbc1b619a	-0.009483719
106	0x3ce09712	0.027415786
107	0xbd6d250c	-0.05789666
108	0xbd504961	-0.05085123
109	0x3c04541d	0.008076695
110	0x3b9ff85e	0.0048819026
111	0x3d39797f	0.045281883
112	0x3aef0568	0.0018235864
113	0x3cfccf2d	0.030860508
114	0x3c09778e	0.00839032
115	0x3dbb854c	0.09156284
116	0xbd7056e0	-0.0586766
117	0x3dfa4e3d	0.12221954
118	0xbc88e37d	-0.016710037
119	0xbd189e25	-0.037260193

fc.f6.weight f4 [84, 120]
0	0xbc5dbce9	-0.013533809
1	0xbdf25a92	-0.11833681
2	0x3da21f80	0.079161644
3	0xbcea237b	-0.028581372
4	0xbcc5592f	-0.024090378
5	0x3c3eb475	0.011639704
6	0x3d85d4b4	0.065347105
7	0xbe0e0bd8	-0.13871706
8	0x3d4b8848	0.049690515
9	0x3d8b8bca	0.06813772
10	0xbd8f2b24	-0.0699065
11	0x3e2509b6	0.16116986
12	0xbd5487cc	-0.05188732
13	0xbd2a114a	-0.041520394
14	0x3cf643fe	0.030061718
15	0xbbf5e295	-0.0075038173
16	0xbe223b8a	-0.15843025
17	0xbd4ad31c	-0.049517736
18	0xbc471b9b	-0.012152578
19	0x3d976421	0.07392145
20	0xbd94c092	-0.07263292
21	0x3dcb5a4c	0.09929332
22	0xbe393cb6	-0.18089566
23	0x3d846cfd	0.064661
24	0x3db14845	0.086563624
25	0xbd0645b9	-0.032781336
26	0xbe04ffae	-0.12988159
27	0x3e026f3f	0.1273775
28	0xbda1f517	-0.07908075
29	0x3b57f63a	0.003295316
30	0x3c93f7af	0.01806244
31	0xbe500f2d	-0.20318289
32	0xbd115e82	-0.03549052
33	0xbd186d0f	-0.03721338
34	0xbd277619	-0.04088411
35	0xbe0bbf8d	-0.1364729
36	0x3dad5e8a	0.084652975
37	0x3dd9b02b	0.106293045
38	0x3d9a7123	0.0754111
39	0x3a83f11f	0.0010066367
40	0xbdfcd9b1	-0.12346209
41	0x3d5d6473	0.054050874
42	0x3d1c7664	0.038198844
43	0xbc9744b9	-0.018465387
44	0x3dbfd0bc	0.09365985
45	0x3e05d6f5	0.13070281
46	0x3eac5a15	0.33662477
47	0x3d3ff1c0	0.04686141
48	0x3d250d47	0.040295865
49	0x3d84d4bc	0.06485888
50	0x3d6cb3de	0.057788722
51	0xbbd68de2	-0.0065476755
52	0xbdc2aebe	-0.09505986
53	0x3e05e2a4	0.13074738
54	0x3cbc1b69	0.022962289
55	0x3da6a934	0.08137742
56	0xbd4c6a94	-0.04990633
57	0x3e08ad9f	0.13347481
58	0x3d006bdc	0.031352863
59	0xbd433a60	-0.047663093
60	0x3d53ce73	0.051710557
61	0xbe137a09	-0.14402021
62	0xbd835f00	-0.06414604
63	0x3cda3062	0.026634399
64	0xbdb64570	-0.08899963
65	0xbd21a4ba	-0.039463736
66	0x3cb90162	0.022583667
67	0x3d9f6aa2	0.077840105
68	0xbc63b3b1	-0.013897822
69	0x3cce231b	0.025163224
70	0x3e26e0e3	0.16296725
71	0x3e4d2725	0.20034464
72	0x3db4b04c	0.088226885
73	0xbd395146	-0.045243524
74	0xbd831539	-0.06400532
75	0xbd6e6e6f	-0.058210786
76	0x3db55319	0.0885374
77	0x3e1296d6	0.14315352
78	0x3ddf78c2	0.109117046
79	0x3d46aab7	0.04850265
80	0x3dbef71a	0.09324475
81	0x3e293627	0.16524564
82	0xbda3d252	-0.079991
83	0x3d7914ea	0.06081096
84	0x3b58da4f	0.0033089106
85	0x3e1098b2	0.14120749
86	0xbd82f3b4	-0.06394139
87	0x3cd049d2	0.025425825
88	0x3e180c2d	0.14848395
89	0xbd1caea3	-0.038252484
90	0xbce89eb7	-0.028395994
91	0x3d61fe06	0.055173896
92	0x3d08ccee	0.03339856
93	0x3d251889	0.0403066
94	0xbdce22bb	-0.10065218
95	0xbd44a1e4	-0.048005953
96	0xbd0fa32d	-0.035067726
97	0x3d50357f	0.050832268
98	0x3c844dbc	0.016150348
99	0x3d2e331e	0.042529218
100	0xbd7680db	-0.06018148
101	0x3e7ccdcf	0.24687885
102	0xbb0ca4b9	-0.0021460487
103	0x3c607fbf	0.013702332
104	0xbc640d47	-0.013919181
105	0xbb65b5be	-0.0035050954
106	0xbe031f79	-0.12804975
107	0xbde11667	-0.10990601
108	0xbd379ae7	-0.04482546
109	0x3ddcef0b	0.10787781
110	0xbd8cdd68	-0.068781674
111	0x3dae3a52	0.085072175
112	0xbe0c802d	-0.1372077
113	0x3db24ddd	0.087062575
114	0xbd42232a	-0.047396816
115	0x3cfb9ee5	0.030715415
116	0x3ce280e7	0.027649356
117	0xbd81333c	-0.063086
118	0x3d4e9308	0.05043319
119	0xbd47421a	-0.048647024
120	0xbc10f55d	-0.008847562
121	0xbcc7e6e4	-0.02440209
122	0xbd8f6dac	-0.0700334
123	0xbd0d29e6	-0.034463786
124	0xbc466fb9	-0.012111598
125	0xbbcda944	-0.0062762816
126	0x3d85dd7b	0.06536385
127	0xbe617448	-0.22017014
128	0x3d0ac930	0.033883274
129	0x3d232bc6	0.039836667
130	0x3e01a7e0	0.12661695
131	0xbca85212	-0.020546947
132	0xbdc13dda	-0.094356254
133	0x3d095be2	0.033534892
134	0xbd88be44	-0.06676915
135	0x3e87f360	0.26552868
136	0x3e6c0708	0.23049557
137	0x3d97af5f	0.07406496
138	0x3db47aac	0.0881246
139	0x3d0f8101	0.035035137
140	0x3dc123c8	0.09430653
141	0x3d0cb471	0.03435177
142	0x3db57a8f	0.08861267
143	0xbdb180f8	-0.08667177
144	0xbcc5f413	-0.024164235
145	0x3da95b7c	0.082694024
146	0xbc14ab01	-0.009073974
147	0xbe8c58a7	-0.27411386
148	0x3c88c28c	0.01669433
149	0x3db3f074	0.08786097
150	0x3cc5da97	0.024152083
151	0x3e2d4057	0.16919075
152	0x3cc764d2	0.024340067
153	0x3c1531a7	0.009106076
154	0x3cac5d0a	0.021040458
155	0xbd9a97b7	-0.075484686
156	0xbd190570	-0.0373587
157	0xbde5e5a0	-0.11225438
158	0xbda548ee	-0.08070551
159	0xbd571641	-0.052511457
160	0x3b2f6b78	0.0026766937
161	0x3dce5f88	0.10076815
162	0x3e0ce853	0.137605
163	0x3d8c22b9	0.0684256
164	0x3da43c15	0.08019272
165	0x3dab96f9	0.08378405
166	0xbe01acef	-0.12663625
167	0x3d0e1922	0.034691937
168	0xbd368dd7	-0.044568863
169	0x3db41e51	0.08794845
170	0xbdc35aca	-0.09538801
171	0x3be0af14	0.0068568084
172	0x3dfa4047	0.12219291
173	0xbdc780e5	-0.097413816
174	0xbc20381d	-0.009779003
175	0xbdb36d67	-0.08761101
176	0xbcb2cafc	-0.021825306
177	0xbd423460	-0.04741323
178	0xbd0b5991	-0.034020964
179	0xba456e0f	-0.00075313536
180	0xbd264c56	-0.040600143
181	0x3d9785ba	0.07398553
182	0x3bb6d02f	0.0055790166
183	0xbd79b06f	-0.060959276
184	0x3d004692	0.0313173
185	0x3d2a662e	0.041601352
186	0xbcd24ed1	-0.025672348
187	0xbe4ca2fa	-0.19984046
188	0x3d8f43e8	0.06995374
189	0x3d933db6	0.07189505
190	0x3cc71a93	0.024304664
191	0xbd8ac652	-0.06776108
192	0x3dbe9981	0.09306622
193	0xbc49bb6f	-0.012312754
194	0x3da72cc9	0.08162839
195	0x3d1ea96a	0.038735785
196	0xbdc2f772	-0.09519853
197	0xbd97b9d3	-0.0740849
198	0xbd24d5d4	-0.040242985
199	0xbc7bb364	-0.015362594
200	0xbd8930f1	-0.06698788
201	0x3dcf323a	0.10117002
202	0x3dc34d41	0.095362194
203	0x3dc3db15	0.09563271
204	0x3da8a13a	0.082338765
205	0xbc3e8f6f	-0.011630877
206	0x3e0dc065	0.13842924
207	0x3c82cad8	0.015965864
208	0xbe0c2683	-0.13686566
209	0x3d066e18	0.032819837
210	0x3dcda1b3	0.10040607
211	0xbe19c123	-0.15015082
212	0xbd8fb7ea	-0.07017501
213	0xbe577d2d	-0.21043845
214	0x3d9c7019	0.076385684
215	0x3d33baae	0.043879203
216	0xbbed249b	-0.0072370297
217	0xbdaa4c24	-0.08315304
218	0x3dd96829	0.1061557
219	0x3daf3314	0.08554664
220	0x3d541bad	0.051784206
221	0x3d4dc310	0.050234854
222	0x3d21492f	0.039376434
223	0x3d247696	0.040152155
224	0x3d571dc4	0.05251862
225	0x3e388bac	0.1802203
226	0x3cbedf03	0.0232997
227	0xbcd52de4	-0.026022859
228	0x3dfe5503	0.124185584
229	0xbe1255b7	-0.1429051
230	0xbc5e5eb2	-0.013572382
231	0xbcd26c57	-0.025686426
232	0x3da46954	0.08027902
233	0xbd83eb20	-0.06441331
234	0xbc904a77	-0.017613633
235	0x3c9647c1	0.018344762
236	0x3d2513de	0.04030215
237	0x3e068381	0.13136102
238	0xbd8dac19	-0.06917591
239	0x3c2b5775	0.010457863
240	0x3d9f90d8	0.07791299
241	0x3e3c0483	0.18361096
242	0x3e43ba90	0.19114137
243	0x3d9da76a	0.07697947
244	0xbdba44a1	-0.09095121
245	0xbb86678a	-0.0041016983
246	0xbc372e76	-0.011180511
247	0x3db337d3	0.08750882
248	0xbddafd6e	-0.10692869
249	0x3d4ffced	0.05077832
250	0xbce0bc96	-0.027433675
251	0xbdcc3fa5	-0.09973077
252	0xbc8107a6	-0.015750717
253	0x3d7f5c10	0.062343657
254	0x3d9808ce	0.07423554
255	0xbcac3e36	-0.021025758

fc.f6.bias f4 [84]
0	0x3dc3d4b9	0.09562058
1	0xbba241e0	-0.0049517006
2	0xbd84d8c9	-0.06486661
3	0xbdae6249	-0.0851484
4	0x3c8601e8	0.01635833
5	0xbd9aa3e1	-0.07550789
6	0xbcda0c15	-0.02661709
7	0xbd433fff	-0.047668453
8	0x3d3f5f3a	0.046721675
9	0x3c66d38a	0.014088521
10	0xbb9bab68	-0.004750658
11	0x3d3160fd	0.043305386
12	0xbcb6dda1	-0.022322478
13	0xbd1a70ab	-0.037705105
14	0xbc8a734b	-0.01690068
15	0x3d877111	0.066133626
16	0xbd27b472	-0.04094357
17	0xbd7f5a64	-0.062342063
18	0x3d2b6c33	0.041851234
19	0x3cab9977	0.020947201
20	0x3d879ca8	0.06621677
21	0x3db3c79b	0.08778306
22	0xbc79bed4	-0.015243251
23	0x3cb24335	0.021760562
24	0xbdac24e3	-0.08405473
25	0xbb988553	-0.0046545654
26	0xbd77e63a	-0.060522296
27	0x3cc1638b	0.023607036
28	0x3d95e323	0.073187135
29	0x3db6f2e5	0.08933047
30	0x3cd97321	0.026544156
31	0x3d241fa6	0.040069245
32	0xbb56d6b8	-0.003278179
33	0xbcc4da74	-0.024029948
34	0xbd9d54b0	-0.076821685
35	0xbcfe409c	-0.031036668
36	0xbc91f590	-0.017817289
37	0x3c8f180a	0.017467517
38	0xbdc43223	-0.09579875
39	0xbd0f5eba	-0.035002448
40	0xbb49cf96	-0.0030793897
41	0xbc001a44	-0.007818762
42	0xbc9a708a	-0.018852491
43	0xbdb75300	-0.08951378
44	0xbd597ac7	-0.053095605
45	0x3d89631f	0.06708359
46	0x3ddcc875	0.10780422
47	0xbd7f33d6	-0.062305294
48	0xbc950037	-0.018188579
49	0x3cac7046	0.02104963
50	0xbd64ea32	-0.05588741
51	0x3db024da	0.08600779
52	0xbccbac7b	-0.024862519
53	0x3cf36959	0.02971332
54	0xbd1a8853	-0.037727665
55	0xbd479d7c	-0.048734173
56	0x3e094ffa	0.13409415
57	0xbd2ea43f	-0.042637106
58	0x3df5a8a8	0.11995059
59	0xbd96a178	-0.073550165
60	0x3dc9d15c	0.09854385
61	0x3c22f49f	0.0099460175
62	0x3cc2375e	0.023708042
63	0xbd2618b0	-0.040550888
64	0xbdac8bda	-0.08425112
65	0xbb8f1e77	-0.0043676454
66	0x3d85c294	0.065312535
67	0x3c83cece	0.016089823
68	0xbd41bafe	-0.04729747
69	0x3db56122	0.08856417
70	0x3cb8be2d	0.02255162
71	0x3dbf2ba6	0.09334497
72	0xba23735e	-0.00062351476
73	0x3d431497	0.047627058
74	0xbd9129f5	-0.07088081
75	0x3d564e78	0.052320927
76	0x3c1bbbb1	0.009505198
77	0x3ddbb6f1	0.10728253
78	0xbd6cd502	-0.057820328
79	0x3e1337cf	0.14376758
80	0xbd62e781	-0.05539656
81	0x3d9d28c0	0.07673788
82	0x3c4c2460	0.012459844
83	0xbdd0bc38	-0.1019215

fc.f7.weight f4 [10, 84]
0	0xbdbabae0	-0.09117675
1	0x3dba50b5	0.09097425
2	0xbe54f3bc	-0.20796102
3	0x3b567af0	0.0032727085
4	0x3dda4146	0.10656981
5	0x3cafa38b	0.021440288
6	0x3b543e07	0.0032385604
7	0x3e029482	0.12751964
8	0x3d6a193f	0.057152983
9	0x3ce651f2	0.028115246
10	0xbe7b4cb4	-0.24540979
11	0x3dbb0037	0.091309
12	0xbe3fc130	-0.18726039
13	0xbd062b31	-0.032756034
14	0x3e79fe13	0.24413328
15	0x3c6517ab	0.013982694
16	0x3e205efd	0.15661235
17	0xbda3e05f	-0.0800178
18	0x3d3f1d75	0.04665895
19	0x3da416c3	0.08012154
20	0x3e06b008	0.13153088
21	0xbd01051f	-0.031499024
22	0x3e29babe	0.16575143
23	0xbd6cfd2c	-0.05785863
24	0xbe32b817	-0.17453037
25	0xbe5f7867	-0.21823274
26	0xbd5f8071	-0.05456585
27	0x3dde51f9	0.10855479
28	0x3daa5b4d	0.083181955
29	0xbdc5aed1	-0.09652484
30	0xbd0ba236	-0.034090243
31	0x3ba23222	0.004949824
32	0xbe7d8110	-0.24756265
33	0x3de38d56	0.11110942
34	0x3d5bb004	0.05363466
35	0x3daa942b	0.08329042
36	0xbdca54ac	-0.09879431
37	0x3ccbd563	0.024882024
38	0xbe34eb69	-0.17667927
39	0xbde4a3a0	-0.111640215
40	0xbd50120f	-0.050798472
41	0x3ddac20b	0.10681542
42	0x3d7c29e5	0.06156339
43	0xbc6e2c6d	-0.014536959
44	0xbd8fbd71	-0.07018555
45	0xbe3c5145	-0.18390377
46	0xbcb43bcb	-0.022001168
47	0xbcda0a2d	-0.02661618
48	0x3d05f2c9	0.03270224
49	0x3d05d5ac	0.032674477
50	0x3d1cdb40	0.03829503
51	0x3e04efc0	0.12982082
52	0xbc9ea787	-0.019366993
53	0x3dea3ee8	0.1143778
54	0x3df4deaf	0.11956536
55	0xbcb8de7b	-0.022567024
56	0xbe2c9fe9	-0.16857876
57	0x3d5c316a	0.053758062
58	0xbd2e571f	-0.042563554
59	0xbd6cce71	-0.057814065
60	0x3ddfaa9f	0.10921215
61	0xbe7b3888	-0.24533284
62	0x3e07ead0	0.13273168
63	0xbda15706	-0.078779265
64	0xbe0aac38	-0.13542259
65	0xbdf10306	-0.11768155
66	0xbd08676d	-0.03330176
67	0x3d49fe98	0.049315065
68	0xbda91d28	-0.08257514
69	0xbdf3ebcf	-0.11910211
70	0xbe11bc43	-0.14231972
71	0xbe238b60	-0.15971136
72	0xbe4a0773	-0.19729404
73	0x3e17ef3b	0.14837353
74	0x3da26707	0.07929807
75	0xbd80a278	-0.062809885
76	0xbe6626d9	-0.22475757
77	0xbe7f7513	-0.24947004
78	0x3de7cf35	0.113188185
79	0xbdb9fc74	-0.09081355
80	0xbd367f81	-0.04455519
81	0xbe0f49f9	-0.13993062
82	0x3d474163	0.048646342
83	0x3dce6a1b	0.10078832
84	0x3e297673	0.16549091
85	0xbe2359bf	-0.15952204
86	0x3d9546af	0.072888725
87	0xbd8c4016	-0.06848161
88	0xbe56418d	-0.20923443
89	0xbd7332ec	-0.059374735
90	0x3dc2945e	0.09500955
91	0x3e2413a2	0.16023114
92	0xbde7b0f2	-0.113130465
93	0xbde87fe4	-0.11352518
94	0x3ce9841f	0.028505383
95	0xbe3721e6	-0.17884025
96	0xbdb7686f	-0.08955466
97	0xbdd62fa3	-0.10458305
98	0x3ddd6892	0.10810961
99	0xbe0c2cdc	-0.13688987
100	0xbd5979ba	-0.053094603
101	0x3b67e478	0.003538398
102	0x3dedea84	0.11616996
103	0xbdfee728	-0.12446433
104	0xbded33cc	-0.11582145
105	0x3d83c76b	0.0643452
106	0x3d6a9215	0.05726822
107	0x3d4bd606	0.049764656
108	0xbe2d9ea1	-0.16955043
109	0xbb927109	-0.0044690412
110	0xbde10152	-0.1098658
111	0xbe4b473a	-0.1985139
112	0xbe00fb03	-0.12595753
113	0x3db0d710	0.0863477
114	0xbd8303ce	-0.0639721
115	0x3e211e18	0.15734136
116	0xbe011e0b	-0.12609117
117	0xbd5cad75	-0.05387636
118	0xbdb9ef5e	-0.09078859
119	0x3d0c1121	0.034196023
120	0x3df1198c	0.11772451
121	0x3de7a818	0.11311358
122	0x3d6b4eea	0.057448305
123	0xbdadc670	-0.084851146
124	0x3e5ed9ea	0.21762815
125	0xbb0e9d14	-0.0021761106
126	0x3d888100	0.0666523
127	0xbd0c3a80	-0.034235477
128	0xbd807e25	-0.0627406
129	0x3dd5399f	0.10411381
130	0x3e1f75a4	0.1557222
131	0x3da35741	0.07975627
132	0xbe91d937	-0.28486034
133	0x3df3d3f1	0.11905659
134	0xbdc6c0ad	-0.09704719
135	0x3e19a414	0.15003997
136	0x3d8b5fa4	0.068053514
137	0xbe194f5c	-0.1497168
138	0xbdcfac04	-0.10140231
139	0x3d9bea06	0.07612996
140	0x3dfcbdba	0.12340875
141	0xbe14814a	-0.14502445
142	0x3e4313ce	0.19050524
143	0x3c73c592	0.014878647
144	0x3d63ce77	0.055616822
145	0xbd508002	-0.050903328
146	0x3d4a5c9f	0.049404737
147	0xbba23aa9	-0.0049508405
148	0xbd39740f	-0.045276698
149	0xbe214b60	-0.1575141
150	0x3bf636a1	0.0075138365
151	0xbe92e7cc	-0.28692472
152	0xbd9706fd	-0.0737438
153	0x3db3117b	0.087435685
154	0xbdfc605d	-0.12323067
155	0xbe20f93f	-0.1572008
156	0xbc942f57	-0.01808898
157	0xbe56ca2c	-0.2097556
158	0xbe389b1e	-0.18027923
159	0x3dcf6433	0.10126533
160	0xbdc07411	-0.09397138
161	0xbcb45acc	-0.022015952
162	0xbd8604f6	-0.06543915
163	0x3dc74246	0.097294375
164	0xbc729ac3	-0.014807406
165	0x3def5ab0	0.11687219
166	0x3cf195d1	0.029490383
167	0xbd839294	-0.06424442
168	0x3d240165	0.040040392
169	0x3ddffc94	0.10936847
170	0x3d2ee3fc	0.04269789
171	0xbd6f0084	-0.0583501
172	0xbe627f0b	-0.22118776
173	0x3c3dda81	0.01158774
174	0xbd07b691	-0.033133093
175	0xbed4af2f	-0.41539904
176	0xbd202166	-0.03909435
177	0x3c1b9b4c	0.009497475
178	0xbe21dd21	-0.1580701
179	0x3e31a4f7	0.17348085
180	0xbe20a919	-0.15689506
181	0x3d05bf63	0.032653224
182	0x3e12ce0e	0.14336416
183	0xbe182e42	-0.14861396
184	0x3d88a4cc	0.066720575
185	0x3dd56f4f	0.10421621
186	0x3d82c521	0.063852556
187	0x3ddbf9b0	0.107409835
188	0xbd9b80d0	-0.075929284
189	0xbe00e48f	-0.12587188
190	0x3d5e7ea2	0.054319985
191	0xbd96b279	-0.0735826
192	0x3e24f355	0.16108449
193	0x3dc6ea8d	0.09712706
194	0xbd027e53	-0.031858753
195	0xbe064778	-0.131132
196	0x3e64cb62	0.2234321
197	0xbeab5dd6	-0.3347003
198	0xbdb31408	-0.08744055
199	0xbd8e8c06	-0.06960301
200	0x3e223d67	0.15843736
201	0xbccccddc	-0.025000505
202	0x3e3ad845	0.18246563
203	0xbcb505ee	-0.022097554
204	0xbca89bc3	-0.020582085
205	0x3dd349cf	0.10316812
206	0x3c781685	0.015142088
207	0x3c783e0d	0.015151513
208	0xbe779088	-0.24176228
209	0x3dfa1c96	0.122124836
210	0x3d2413a1	0.040057782
211	0xbd7839bb	-0.06060193
212	0x3d8da6f3	0.06916609
213	0x3d621a3f	0.05520081
214	0xbca24f89	-0.019813316
215	0xbdc0328a	-0.093846396
216	0xbd23a28e	-0.039949946
217	0xbd51b40c	-0.051197097
218	0x3b78f3e0	0.0037987158
219	0x3df14613	0.11780944
220	0x3d8129ca	0.06306799
221	0x3da87a7b	0.08226486
222	0x3e023411	0.12715174
223	0xbcd05020	-0.025428832
224	0x3daa29ae	0.08308731
225	0x3d4aa42b	0.04947297
226	0xbe2a3011	-0.16619898
227	0x3d971d2e	0.073786125
228	0x3e0ad97d	0.13559528
229	0xbb1d6c79	-0.0024020954
230	0x3e70a505	0.2350045
231	0xbd814171	-0.0631131
232	0xbc02019d	-0.007934955
233	0xbd680543	-0.056645643
234	0xbdaffc56	-0.08593051
235	0xbe6993f6	-0.22810349
236	0x3cb613d0	0.022226244
237	0xbd607af4	-0.054804757
238	0xbe15faef	-0.14646505
239	0x3e163263	0.14667659
240	0x3dd718ab	0.10502752
241	0xbe49b0ee	-0.196964
242	0xbe72117e	-0.23639485
243	0x3dfae63f	0.12250947
244	0xbd6abe96	-0.057310663
245	0xbd24cd3c	-0.04023479
246	0x3d99e15f	0.07513689
247	0xbe3cf4d0	-0.18452764
248	0xbbc46657	-0.005993645
249	0xbe5f074d	-0.21780129
250	0xbd99816c	-0.074953884
251	0xbe37e00e	-0.17956564
252	0xbd29083d	-0.041267622
253	0x3e1cb41a	0.15303078
254	0xbe86cfa1	-0.26330283
255	0xbdd2ed64	-0.10299185

fc.f7.bias f4 [10]
0	0xbd5b8172	-0.053590246
1	0x3d413769	0.047171984
2	0xbde462e5	-0.11151675
3	0xbc893321	-0.016748013
4	0xbdc6d2f9	-0.097082086
5	0xbd7f94a8	-0.06239763
6	0xbaf98761	-0.0019037538
7	0x3a90f0d3	0.0011058099
8	0x3d80dc4a	0.06292017
9	0x3db1154b	0.086466394
